{"format": "graph-model", "generatedBy": "1.15.0", "convertedBy": "TensorFlow.js Converter v1.4.0", "userDefinedMetadata": {"signature": {"inputs": {"image:0": {"name": "image:0", "dtype": "DT_FLOAT", "tensorShape": {"dim": [{"size": "1"}, {"size": "224"}, {"size": "224"}, {"size": "3"}]}}}, "outputs": {"scores:0": {"name": "scores:0", "dtype": "DT_FLOAT", "tensorShape": {"dim": [{"size": "1"}, {"size": "5"}]}}}}}, "modelTopology": {"node": [{"name": "image", "op": "Placeholder", "attr": {"dtype": {"type": "DT_FLOAT"}, "shape": {"shape": {"dim": [{"size": "1"}, {"size": "224"}, {"size": "224"}, {"size": "3"}]}}}}, {"name": "mnas_v4_a_035_1/feature_network/feature_extractor/Mean/reduction_indices", "op": "Const", "attr": {"value": {"tensor": {"dtype": "DT_INT32", "tensorShape": {"dim": [{"size": "2"}]}}}, "dtype": {"type": "DT_INT32"}}}, {"name": "mnas_v4_a_035/output/fc/tf_layer/kernel", "op": "Const", "attr": {"dtype": {"type": "DT_FLOAT"}, "value": {"tensor": {"dtype": "DT_FLOAT", "tensorShape": {"dim": [{"size": "1280"}, {"size": "5"}]}}}}}, {"name": "mnas_v4_a_035/output/fc/tf_layer/bias", "op": "Const", "attr": {"dtype": {"type": "DT_FLOAT"}, "value": {"tensor": {"dtype": "DT_FLOAT", "tensorShape": {"dim": [{"size": "5"}]}}}}}, {"name": "ExpandDims/dim", "op": "Const", "attr": {"value": {"tensor": {"dtype": "DT_INT32", "tensorShape": {}}}, "dtype": {"type": "DT_INT32"}}}, {"name": "mnas_v4_a_035_1/feature_network/stem/conv/Conv2D_weights", "op": "Const", "attr": {"value": {"tensor": {"dtype": "DT_FLOAT", "tensorShape": {"dim": [{"size": "3"}, {"size": "3"}, {"size": "3"}, {"size": "16"}]}}}, "dtype": {"type": "DT_FLOAT"}}}, {"name": "mnas_v4_a_035_1/feature_network/stem/conv/Conv2D_bn_offset", "op": "Const", "attr": {"value": {"tensor": {"dtype": "DT_FLOAT", "tensorShape": {"dim": [{"size": "16"}]}}}, "dtype": {"type": "DT_FLOAT"}}}, {"name": "mnas_v4_a_035_1/feature_network/lead_cell_0/op_0/depthwise_0/depthwise_weights", "op": "Const", "attr": {"dtype": {"type": "DT_FLOAT"}, "value": {"tensor": {"dtype": "DT_FLOAT", "tensorShape": {"dim": [{"size": "3"}, {"size": "3"}, {"size": "16"}, {"size": "1"}]}}}}}, {"name": "mnas_v4_a_035_1/feature_network/lead_cell_0/op_0/depthwise_0/depthwise_bn_offset", "op": "Const", "attr": {"value": {"tensor": {"dtype": "DT_FLOAT", "tensorShape": {"dim": [{"size": "16"}]}}}, "dtype": {"type": "DT_FLOAT"}}}, {"name": "mnas_v4_a_035_1/feature_network/lead_cell_0/op_0/project_0/Conv2D_weights", "op": "Const", "attr": {"value": {"tensor": {"dtype": "DT_FLOAT", "tensorShape": {"dim": [{"size": "1"}, {"size": "1"}, {"size": "16"}, {"size": "8"}]}}}, "dtype": {"type": "DT_FLOAT"}}}, {"name": "mnas_v4_a_035_1/feature_network/lead_cell_0/op_0/project_0/Conv2D_bn_offset", "op": "Const", "attr": {"dtype": {"type": "DT_FLOAT"}, "value": {"tensor": {"dtype": "DT_FLOAT", "tensorShape": {"dim": [{"size": "8"}]}}}}}, {"name": "mnas_v4_a_035_1/feature_network/lead_cell_1/op_0/expand_0/Conv2D_weights", "op": "Const", "attr": {"value": {"tensor": {"dtype": "DT_FLOAT", "tensorShape": {"dim": [{"size": "1"}, {"size": "1"}, {"size": "8"}, {"size": "24"}]}}}, "dtype": {"type": "DT_FLOAT"}}}, {"name": "mnas_v4_a_035_1/feature_network/cell_14/op_0/depthwise_0/depthwise_weights", "op": "Const", "attr": {"value": {"tensor": {"dtype": "DT_FLOAT", "tensorShape": {"dim": [{"size": "5"}, {"size": "5"}, {"size": "384"}, {"size": "1"}]}}}, "dtype": {"type": "DT_FLOAT"}}}, {"name": "mnas_v4_a_035_1/feature_network/lead_cell_1/op_0/expand_0/Conv2D_bn_offset", "op": "Const", "attr": {"value": {"tensor": {"dtype": "DT_FLOAT", "tensorShape": {"dim": [{"size": "24"}]}}}, "dtype": {"type": "DT_FLOAT"}}}, {"name": "mnas_v4_a_035_1/feature_network/lead_cell_1/op_0/depthwise_0/depthwise_weights", "op": "Const", "attr": {"value": {"tensor": {"dtype": "DT_FLOAT", "tensorShape": {"dim": [{"size": "3"}, {"size": "3"}, {"size": "24"}, {"size": "1"}]}}}, "dtype": {"type": "DT_FLOAT"}}}, {"name": "mnas_v4_a_035_1/feature_network/lead_cell_1/op_0/depthwise_0/depthwise_bn_offset", "op": "Const", "attr": {"value": {"tensor": {"dtype": "DT_FLOAT", "tensorShape": {"dim": [{"size": "24"}]}}}, "dtype": {"type": "DT_FLOAT"}}}, {"name": "mnas_v4_a_035_1/feature_network/lead_cell_1/op_0/project_0/Conv2D_weights", "op": "Const", "attr": {"value": {"tensor": {"dtype": "DT_FLOAT", "tensorShape": {"dim": [{"size": "1"}, {"size": "1"}, {"size": "24"}, {"size": "8"}]}}}, "dtype": {"type": "DT_FLOAT"}}}, {"name": "mnas_v4_a_035_1/feature_network/cell_14/op_0/depthwise_0/depthwise_bn_offset", "op": "Const", "attr": {"value": {"tensor": {"dtype": "DT_FLOAT", "tensorShape": {"dim": [{"size": "384"}]}}}, "dtype": {"type": "DT_FLOAT"}}}, {"name": "mnas_v4_a_035_1/feature_network/lead_cell_1/op_0/project_0/Conv2D_bn_offset", "op": "Const", "attr": {"dtype": {"type": "DT_FLOAT"}, "value": {"tensor": {"dtype": "DT_FLOAT", "tensorShape": {"dim": [{"size": "8"}]}}}}}, {"name": "mnas_v4_a_035_1/feature_network/cell_2/op_0/expand_0/Conv2D_weights", "op": "Const", "attr": {"value": {"tensor": {"dtype": "DT_FLOAT", "tensorShape": {"dim": [{"size": "1"}, {"size": "1"}, {"size": "8"}, {"size": "24"}]}}}, "dtype": {"type": "DT_FLOAT"}}}, {"name": "mnas_v4_a_035_1/feature_network/cell_2/op_0/expand_0/Conv2D_bn_offset", "op": "Const", "attr": {"value": {"tensor": {"dtype": "DT_FLOAT", "tensorShape": {"dim": [{"size": "24"}]}}}, "dtype": {"type": "DT_FLOAT"}}}, {"name": "mnas_v4_a_035_1/feature_network/cell_2/op_0/depthwise_0/depthwise_weights", "op": "Const", "attr": {"dtype": {"type": "DT_FLOAT"}, "value": {"tensor": {"dtype": "DT_FLOAT", "tensorShape": {"dim": [{"size": "3"}, {"size": "3"}, {"size": "24"}, {"size": "1"}]}}}}}, {"name": "mnas_v4_a_035_1/feature_network/cell_2/op_0/depthwise_0/depthwise_bn_offset", "op": "Const", "attr": {"value": {"tensor": {"dtype": "DT_FLOAT", "tensorShape": {"dim": [{"size": "24"}]}}}, "dtype": {"type": "DT_FLOAT"}}}, {"name": "mnas_v4_a_035_1/feature_network/cell_2/op_0/project_0/Conv2D_weights", "op": "Const", "attr": {"value": {"tensor": {"dtype": "DT_FLOAT", "tensorShape": {"dim": [{"size": "1"}, {"size": "1"}, {"size": "24"}, {"size": "8"}]}}}, "dtype": {"type": "DT_FLOAT"}}}, {"name": "mnas_v4_a_035_1/feature_network/cell_14/op_0/project_0/Conv2D_weights", "op": "Const", "attr": {"value": {"tensor": {"dtype": "DT_FLOAT", "tensorShape": {"dim": [{"size": "1"}, {"size": "1"}, {"size": "384"}, {"size": "64"}]}}}, "dtype": {"type": "DT_FLOAT"}}}, {"name": "mnas_v4_a_035_1/feature_network/cell_2/op_0/project_0/Conv2D_bn_offset", "op": "Const", "attr": {"value": {"tensor": {"dtype": "DT_FLOAT", "tensorShape": {"dim": [{"size": "8"}]}}}, "dtype": {"type": "DT_FLOAT"}}}, {"name": "mnas_v4_a_035_1/feature_network/cell_3/op_0/expand_0/Conv2D_weights", "op": "Const", "attr": {"dtype": {"type": "DT_FLOAT"}, "value": {"tensor": {"dtype": "DT_FLOAT", "tensorShape": {"dim": [{"size": "1"}, {"size": "1"}, {"size": "8"}, {"size": "24"}]}}}}}, {"name": "mnas_v4_a_035_1/feature_network/lead_cell_17/op_0/conv2d_0/Conv2D_bn_offset", "op": "Const", "attr": {"dtype": {"type": "DT_FLOAT"}, "value": {"tensor": {"dtype": "DT_FLOAT", "tensorShape": {"dim": [{"size": "1280"}]}}}}}, {"name": "mnas_v4_a_035_1/feature_network/cell_3/op_0/expand_0/Conv2D_bn_offset", "op": "Const", "attr": {"value": {"tensor": {"dtype": "DT_FLOAT", "tensorShape": {"dim": [{"size": "24"}]}}}, "dtype": {"type": "DT_FLOAT"}}}, {"name": "mnas_v4_a_035_1/feature_network/cell_14/op_0/project_0/Conv2D_bn_offset", "op": "Const", "attr": {"dtype": {"type": "DT_FLOAT"}, "value": {"tensor": {"dtype": "DT_FLOAT", "tensorShape": {"dim": [{"size": "64"}]}}}}}, {"name": "mnas_v4_a_035_1/feature_network/cell_3/op_0/depthwise_0/depthwise_weights", "op": "Const", "attr": {"dtype": {"type": "DT_FLOAT"}, "value": {"tensor": {"dtype": "DT_FLOAT", "tensorShape": {"dim": [{"size": "3"}, {"size": "3"}, {"size": "24"}, {"size": "1"}]}}}}}, {"name": "mnas_v4_a_035_1/feature_network/cell_3/op_0/depthwise_0/depthwise_bn_offset", "op": "Const", "attr": {"value": {"tensor": {"dtype": "DT_FLOAT", "tensorShape": {"dim": [{"size": "24"}]}}}, "dtype": {"type": "DT_FLOAT"}}}, {"name": "mnas_v4_a_035_1/feature_network/cell_3/op_0/project_0/Conv2D_weights", "op": "Const", "attr": {"value": {"tensor": {"dtype": "DT_FLOAT", "tensorShape": {"dim": [{"size": "1"}, {"size": "1"}, {"size": "24"}, {"size": "8"}]}}}, "dtype": {"type": "DT_FLOAT"}}}, {"name": "mnas_v4_a_035_1/feature_network/cell_3/op_0/project_0/Conv2D_bn_offset", "op": "Const", "attr": {"dtype": {"type": "DT_FLOAT"}, "value": {"tensor": {"dtype": "DT_FLOAT", "tensorShape": {"dim": [{"size": "8"}]}}}}}, {"name": "mnas_v4_a_035_1/feature_network/lead_cell_4/op_0/expand_0/Conv2D_weights", "op": "Const", "attr": {"value": {"tensor": {"dtype": "DT_FLOAT", "tensorShape": {"dim": [{"size": "1"}, {"size": "1"}, {"size": "8"}, {"size": "24"}]}}}, "dtype": {"type": "DT_FLOAT"}}}, {"name": "mnas_v4_a_035_1/feature_network/lead_cell_4/op_0/expand_0/Conv2D_bn_offset", "op": "Const", "attr": {"dtype": {"type": "DT_FLOAT"}, "value": {"tensor": {"dtype": "DT_FLOAT", "tensorShape": {"dim": [{"size": "24"}]}}}}}, {"name": "mnas_v4_a_035_1/feature_network/cell_15/op_0/expand_0/Conv2D_weights", "op": "Const", "attr": {"value": {"tensor": {"dtype": "DT_FLOAT", "tensorShape": {"dim": [{"size": "1"}, {"size": "1"}, {"size": "64"}, {"size": "384"}]}}}, "dtype": {"type": "DT_FLOAT"}}}, {"name": "mnas_v4_a_035_1/feature_network/lead_cell_4/op_0/depthwise_0/depthwise_weights", "op": "Const", "attr": {"value": {"tensor": {"dtype": "DT_FLOAT", "tensorShape": {"dim": [{"size": "5"}, {"size": "5"}, {"size": "24"}, {"size": "1"}]}}}, "dtype": {"type": "DT_FLOAT"}}}, {"name": "mnas_v4_a_035_1/feature_network/lead_cell_4/op_0/depthwise_0/depthwise_bn_offset", "op": "Const", "attr": {"value": {"tensor": {"dtype": "DT_FLOAT", "tensorShape": {"dim": [{"size": "24"}]}}}, "dtype": {"type": "DT_FLOAT"}}}, {"name": "mnas_v4_a_035_1/feature_network/lead_cell_4/op_0/project_0/Conv2D_weights", "op": "Const", "attr": {"value": {"tensor": {"dtype": "DT_FLOAT", "tensorShape": {"dim": [{"size": "1"}, {"size": "1"}, {"size": "24"}, {"size": "16"}]}}}, "dtype": {"type": "DT_FLOAT"}}}, {"name": "mnas_v4_a_035_1/feature_network/lead_cell_4/op_0/project_0/Conv2D_bn_offset", "op": "Const", "attr": {"value": {"tensor": {"dtype": "DT_FLOAT", "tensorShape": {"dim": [{"size": "16"}]}}}, "dtype": {"type": "DT_FLOAT"}}}, {"name": "mnas_v4_a_035_1/feature_network/cell_5/op_0/expand_0/Conv2D_weights", "op": "Const", "attr": {"value": {"tensor": {"dtype": "DT_FLOAT", "tensorShape": {"dim": [{"size": "1"}, {"size": "1"}, {"size": "16"}, {"size": "48"}]}}}, "dtype": {"type": "DT_FLOAT"}}}, {"name": "mnas_v4_a_035_1/feature_network/cell_15/op_0/expand_0/Conv2D_bn_offset", "op": "Const", "attr": {"dtype": {"type": "DT_FLOAT"}, "value": {"tensor": {"dtype": "DT_FLOAT", "tensorShape": {"dim": [{"size": "384"}]}}}}}, {"name": "mnas_v4_a_035_1/feature_network/cell_5/op_0/expand_0/Conv2D_bn_offset", "op": "Const", "attr": {"value": {"tensor": {"dtype": "DT_FLOAT", "tensorShape": {"dim": [{"size": "48"}]}}}, "dtype": {"type": "DT_FLOAT"}}}, {"name": "mnas_v4_a_035_1/feature_network/cell_5/op_0/depthwise_0/depthwise_weights", "op": "Const", "attr": {"value": {"tensor": {"dtype": "DT_FLOAT", "tensorShape": {"dim": [{"size": "5"}, {"size": "5"}, {"size": "48"}, {"size": "1"}]}}}, "dtype": {"type": "DT_FLOAT"}}}, {"name": "mnas_v4_a_035_1/feature_network/cell_5/op_0/depthwise_0/depthwise_bn_offset", "op": "Const", "attr": {"dtype": {"type": "DT_FLOAT"}, "value": {"tensor": {"dtype": "DT_FLOAT", "tensorShape": {"dim": [{"size": "48"}]}}}}}, {"name": "mnas_v4_a_035_1/feature_network/cell_5/op_0/project_0/Conv2D_weights", "op": "Const", "attr": {"dtype": {"type": "DT_FLOAT"}, "value": {"tensor": {"dtype": "DT_FLOAT", "tensorShape": {"dim": [{"size": "1"}, {"size": "1"}, {"size": "48"}, {"size": "16"}]}}}}}, {"name": "mnas_v4_a_035_1/feature_network/cell_5/op_0/project_0/Conv2D_bn_offset", "op": "Const", "attr": {"value": {"tensor": {"dtype": "DT_FLOAT", "tensorShape": {"dim": [{"size": "16"}]}}}, "dtype": {"type": "DT_FLOAT"}}}, {"name": "mnas_v4_a_035_1/feature_network/cell_6/op_0/expand_0/Conv2D_weights", "op": "Const", "attr": {"value": {"tensor": {"dtype": "DT_FLOAT", "tensorShape": {"dim": [{"size": "1"}, {"size": "1"}, {"size": "16"}, {"size": "48"}]}}}, "dtype": {"type": "DT_FLOAT"}}}, {"name": "mnas_v4_a_035_1/feature_network/cell_15/op_0/depthwise_0/depthwise_weights", "op": "Const", "attr": {"value": {"tensor": {"dtype": "DT_FLOAT", "tensorShape": {"dim": [{"size": "5"}, {"size": "5"}, {"size": "384"}, {"size": "1"}]}}}, "dtype": {"type": "DT_FLOAT"}}}, {"name": "mnas_v4_a_035_1/feature_network/cell_6/op_0/expand_0/Conv2D_bn_offset", "op": "Const", "attr": {"value": {"tensor": {"dtype": "DT_FLOAT", "tensorShape": {"dim": [{"size": "48"}]}}}, "dtype": {"type": "DT_FLOAT"}}}, {"name": "mnas_v4_a_035_1/feature_network/cell_6/op_0/depthwise_0/depthwise_weights", "op": "Const", "attr": {"value": {"tensor": {"dtype": "DT_FLOAT", "tensorShape": {"dim": [{"size": "5"}, {"size": "5"}, {"size": "48"}, {"size": "1"}]}}}, "dtype": {"type": "DT_FLOAT"}}}, {"name": "mnas_v4_a_035_1/feature_network/cell_6/op_0/depthwise_0/depthwise_bn_offset", "op": "Const", "attr": {"dtype": {"type": "DT_FLOAT"}, "value": {"tensor": {"dtype": "DT_FLOAT", "tensorShape": {"dim": [{"size": "48"}]}}}}}, {"name": "mnas_v4_a_035_1/feature_network/cell_6/op_0/project_0/Conv2D_weights", "op": "Const", "attr": {"value": {"tensor": {"dtype": "DT_FLOAT", "tensorShape": {"dim": [{"size": "1"}, {"size": "1"}, {"size": "48"}, {"size": "16"}]}}}, "dtype": {"type": "DT_FLOAT"}}}, {"name": "mnas_v4_a_035_1/feature_network/cell_15/op_0/depthwise_0/depthwise_bn_offset", "op": "Const", "attr": {"value": {"tensor": {"dtype": "DT_FLOAT", "tensorShape": {"dim": [{"size": "384"}]}}}, "dtype": {"type": "DT_FLOAT"}}}, {"name": "mnas_v4_a_035_1/feature_network/cell_6/op_0/project_0/Conv2D_bn_offset", "op": "Const", "attr": {"value": {"tensor": {"dtype": "DT_FLOAT", "tensorShape": {"dim": [{"size": "16"}]}}}, "dtype": {"type": "DT_FLOAT"}}}, {"name": "mnas_v4_a_035_1/feature_network/lead_cell_7/op_0/expand_0/Conv2D_weights", "op": "Const", "attr": {"value": {"tensor": {"dtype": "DT_FLOAT", "tensorShape": {"dim": [{"size": "1"}, {"size": "1"}, {"size": "16"}, {"size": "96"}]}}}, "dtype": {"type": "DT_FLOAT"}}}, {"name": "mnas_v4_a_035_1/feature_network/lead_cell_7/op_0/expand_0/Conv2D_bn_offset", "op": "Const", "attr": {"dtype": {"type": "DT_FLOAT"}, "value": {"tensor": {"dtype": "DT_FLOAT", "tensorShape": {"dim": [{"size": "96"}]}}}}}, {"name": "mnas_v4_a_035_1/feature_network/lead_cell_7/op_0/depthwise_0/depthwise_weights", "op": "Const", "attr": {"value": {"tensor": {"dtype": "DT_FLOAT", "tensorShape": {"dim": [{"size": "5"}, {"size": "5"}, {"size": "96"}, {"size": "1"}]}}}, "dtype": {"type": "DT_FLOAT"}}}, {"name": "mnas_v4_a_035_1/feature_network/lead_cell_7/op_0/depthwise_0/depthwise_bn_offset", "op": "Const", "attr": {"value": {"tensor": {"dtype": "DT_FLOAT", "tensorShape": {"dim": [{"size": "96"}]}}}, "dtype": {"type": "DT_FLOAT"}}}, {"name": "mnas_v4_a_035_1/feature_network/lead_cell_7/op_0/project_0/Conv2D_weights", "op": "Const", "attr": {"value": {"tensor": {"dtype": "DT_FLOAT", "tensorShape": {"dim": [{"size": "1"}, {"size": "1"}, {"size": "96"}, {"size": "32"}]}}}, "dtype": {"type": "DT_FLOAT"}}}, {"name": "mnas_v4_a_035_1/feature_network/cell_15/op_0/project_0/Conv2D_weights", "op": "Const", "attr": {"dtype": {"type": "DT_FLOAT"}, "value": {"tensor": {"dtype": "DT_FLOAT", "tensorShape": {"dim": [{"size": "1"}, {"size": "1"}, {"size": "384"}, {"size": "64"}]}}}}}, {"name": "mnas_v4_a_035_1/feature_network/lead_cell_7/op_0/project_0/Conv2D_bn_offset", "op": "Const", "attr": {"dtype": {"type": "DT_FLOAT"}, "value": {"tensor": {"dtype": "DT_FLOAT", "tensorShape": {"dim": [{"size": "32"}]}}}}}, {"name": "mnas_v4_a_035_1/feature_network/cell_8/op_0/expand_0/Conv2D_weights", "op": "Const", "attr": {"dtype": {"type": "DT_FLOAT"}, "value": {"tensor": {"dtype": "DT_FLOAT", "tensorShape": {"dim": [{"size": "1"}, {"size": "1"}, {"size": "32"}, {"size": "192"}]}}}}}, {"name": "mnas_v4_a_035_1/feature_network/cell_8/op_0/expand_0/Conv2D_bn_offset", "op": "Const", "attr": {"dtype": {"type": "DT_FLOAT"}, "value": {"tensor": {"dtype": "DT_FLOAT", "tensorShape": {"dim": [{"size": "192"}]}}}}}, {"name": "mnas_v4_a_035_1/feature_network/cell_15/op_0/project_0/Conv2D_bn_offset", "op": "Const", "attr": {"value": {"tensor": {"dtype": "DT_FLOAT", "tensorShape": {"dim": [{"size": "64"}]}}}, "dtype": {"type": "DT_FLOAT"}}}, {"name": "mnas_v4_a_035_1/feature_network/cell_8/op_0/depthwise_0/depthwise_weights", "op": "Const", "attr": {"value": {"tensor": {"dtype": "DT_FLOAT", "tensorShape": {"dim": [{"size": "5"}, {"size": "5"}, {"size": "192"}, {"size": "1"}]}}}, "dtype": {"type": "DT_FLOAT"}}}, {"name": "mnas_v4_a_035_1/feature_network/cell_8/op_0/depthwise_0/depthwise_bn_offset", "op": "Const", "attr": {"dtype": {"type": "DT_FLOAT"}, "value": {"tensor": {"dtype": "DT_FLOAT", "tensorShape": {"dim": [{"size": "192"}]}}}}}, {"name": "mnas_v4_a_035_1/feature_network/cell_8/op_0/project_0/Conv2D_weights", "op": "Const", "attr": {"value": {"tensor": {"dtype": "DT_FLOAT", "tensorShape": {"dim": [{"size": "1"}, {"size": "1"}, {"size": "192"}, {"size": "32"}]}}}, "dtype": {"type": "DT_FLOAT"}}}, {"name": "mnas_v4_a_035_1/feature_network/cell_8/op_0/project_0/Conv2D_bn_offset", "op": "Const", "attr": {"value": {"tensor": {"dtype": "DT_FLOAT", "tensorShape": {"dim": [{"size": "32"}]}}}, "dtype": {"type": "DT_FLOAT"}}}, {"name": "mnas_v4_a_035_1/feature_network/cell_9/op_0/expand_0/Conv2D_weights", "op": "Const", "attr": {"dtype": {"type": "DT_FLOAT"}, "value": {"tensor": {"dtype": "DT_FLOAT", "tensorShape": {"dim": [{"size": "1"}, {"size": "1"}, {"size": "32"}, {"size": "192"}]}}}}}, {"name": "mnas_v4_a_035_1/feature_network/cell_9/op_0/expand_0/Conv2D_bn_offset", "op": "Const", "attr": {"value": {"tensor": {"dtype": "DT_FLOAT", "tensorShape": {"dim": [{"size": "192"}]}}}, "dtype": {"type": "DT_FLOAT"}}}, {"name": "mnas_v4_a_035_1/feature_network/lead_cell_16/op_0/expand_0/Conv2D_weights", "op": "Const", "attr": {"dtype": {"type": "DT_FLOAT"}, "value": {"tensor": {"dtype": "DT_FLOAT", "tensorShape": {"dim": [{"size": "1"}, {"size": "1"}, {"size": "64"}, {"size": "384"}]}}}}}, {"name": "mnas_v4_a_035_1/feature_network/cell_9/op_0/depthwise_0/depthwise_weights", "op": "Const", "attr": {"dtype": {"type": "DT_FLOAT"}, "value": {"tensor": {"dtype": "DT_FLOAT", "tensorShape": {"dim": [{"size": "5"}, {"size": "5"}, {"size": "192"}, {"size": "1"}]}}}}}, {"name": "mnas_v4_a_035_1/feature_network/cell_9/op_0/depthwise_0/depthwise_bn_offset", "op": "Const", "attr": {"value": {"tensor": {"dtype": "DT_FLOAT", "tensorShape": {"dim": [{"size": "192"}]}}}, "dtype": {"type": "DT_FLOAT"}}}, {"name": "mnas_v4_a_035_1/feature_network/cell_9/op_0/project_0/Conv2D_weights", "op": "Const", "attr": {"dtype": {"type": "DT_FLOAT"}, "value": {"tensor": {"dtype": "DT_FLOAT", "tensorShape": {"dim": [{"size": "1"}, {"size": "1"}, {"size": "192"}, {"size": "32"}]}}}}}, {"name": "mnas_v4_a_035_1/feature_network/cell_9/op_0/project_0/Conv2D_bn_offset", "op": "Const", "attr": {"value": {"tensor": {"dtype": "DT_FLOAT", "tensorShape": {"dim": [{"size": "32"}]}}}, "dtype": {"type": "DT_FLOAT"}}}, {"name": "mnas_v4_a_035_1/feature_network/lead_cell_10/op_0/expand_0/Conv2D_weights", "op": "Const", "attr": {"value": {"tensor": {"dtype": "DT_FLOAT", "tensorShape": {"dim": [{"size": "1"}, {"size": "1"}, {"size": "32"}, {"size": "192"}]}}}, "dtype": {"type": "DT_FLOAT"}}}, {"name": "mnas_v4_a_035_1/feature_network/lead_cell_16/op_0/expand_0/Conv2D_bn_offset", "op": "Const", "attr": {"value": {"tensor": {"dtype": "DT_FLOAT", "tensorShape": {"dim": [{"size": "384"}]}}}, "dtype": {"type": "DT_FLOAT"}}}, {"name": "mnas_v4_a_035_1/feature_network/lead_cell_10/op_0/expand_0/Conv2D_bn_offset", "op": "Const", "attr": {"dtype": {"type": "DT_FLOAT"}, "value": {"tensor": {"dtype": "DT_FLOAT", "tensorShape": {"dim": [{"size": "192"}]}}}}}, {"name": "mnas_v4_a_035_1/feature_network/lead_cell_10/op_0/depthwise_0/depthwise_weights", "op": "Const", "attr": {"value": {"tensor": {"dtype": "DT_FLOAT", "tensorShape": {"dim": [{"size": "3"}, {"size": "3"}, {"size": "192"}, {"size": "1"}]}}}, "dtype": {"type": "DT_FLOAT"}}}, {"name": "mnas_v4_a_035_1/feature_network/lead_cell_10/op_0/depthwise_0/depthwise_bn_offset", "op": "Const", "attr": {"value": {"tensor": {"dtype": "DT_FLOAT", "tensorShape": {"dim": [{"size": "192"}]}}}, "dtype": {"type": "DT_FLOAT"}}}, {"name": "mnas_v4_a_035_1/feature_network/lead_cell_10/op_0/project_0/Conv2D_weights", "op": "Const", "attr": {"value": {"tensor": {"dtype": "DT_FLOAT", "tensorShape": {"dim": [{"size": "1"}, {"size": "1"}, {"size": "192"}, {"size": "32"}]}}}, "dtype": {"type": "DT_FLOAT"}}}, {"name": "mnas_v4_a_035_1/feature_network/lead_cell_10/op_0/project_0/Conv2D_bn_offset", "op": "Const", "attr": {"value": {"tensor": {"dtype": "DT_FLOAT", "tensorShape": {"dim": [{"size": "32"}]}}}, "dtype": {"type": "DT_FLOAT"}}}, {"name": "mnas_v4_a_035_1/feature_network/cell_11/op_0/expand_0/Conv2D_weights", "op": "Const", "attr": {"value": {"tensor": {"dtype": "DT_FLOAT", "tensorShape": {"dim": [{"size": "1"}, {"size": "1"}, {"size": "32"}, {"size": "192"}]}}}, "dtype": {"type": "DT_FLOAT"}}}, {"name": "mnas_v4_a_035_1/feature_network/lead_cell_16/op_0/depthwise_0/depthwise_weights", "op": "Const", "attr": {"value": {"tensor": {"dtype": "DT_FLOAT", "tensorShape": {"dim": [{"size": "3"}, {"size": "3"}, {"size": "384"}, {"size": "1"}]}}}, "dtype": {"type": "DT_FLOAT"}}}, {"name": "mnas_v4_a_035_1/feature_network/cell_11/op_0/expand_0/Conv2D_bn_offset", "op": "Const", "attr": {"value": {"tensor": {"dtype": "DT_FLOAT", "tensorShape": {"dim": [{"size": "192"}]}}}, "dtype": {"type": "DT_FLOAT"}}}, {"name": "mnas_v4_a_035_1/feature_network/cell_11/op_0/depthwise_0/depthwise_weights", "op": "Const", "attr": {"dtype": {"type": "DT_FLOAT"}, "value": {"tensor": {"dtype": "DT_FLOAT", "tensorShape": {"dim": [{"size": "3"}, {"size": "3"}, {"size": "192"}, {"size": "1"}]}}}}}, {"name": "mnas_v4_a_035_1/feature_network/cell_11/op_0/depthwise_0/depthwise_bn_offset", "op": "Const", "attr": {"value": {"tensor": {"dtype": "DT_FLOAT", "tensorShape": {"dim": [{"size": "192"}]}}}, "dtype": {"type": "DT_FLOAT"}}}, {"name": "mnas_v4_a_035_1/feature_network/cell_11/op_0/project_0/Conv2D_weights", "op": "Const", "attr": {"value": {"tensor": {"dtype": "DT_FLOAT", "tensorShape": {"dim": [{"size": "1"}, {"size": "1"}, {"size": "192"}, {"size": "32"}]}}}, "dtype": {"type": "DT_FLOAT"}}}, {"name": "mnas_v4_a_035_1/feature_network/lead_cell_16/op_0/depthwise_0/depthwise_bn_offset", "op": "Const", "attr": {"value": {"tensor": {"dtype": "DT_FLOAT", "tensorShape": {"dim": [{"size": "384"}]}}}, "dtype": {"type": "DT_FLOAT"}}}, {"name": "mnas_v4_a_035_1/feature_network/cell_11/op_0/project_0/Conv2D_bn_offset", "op": "Const", "attr": {"value": {"tensor": {"dtype": "DT_FLOAT", "tensorShape": {"dim": [{"size": "32"}]}}}, "dtype": {"type": "DT_FLOAT"}}}, {"name": "mnas_v4_a_035_1/feature_network/lead_cell_12/op_0/expand_0/Conv2D_weights", "op": "Const", "attr": {"dtype": {"type": "DT_FLOAT"}, "value": {"tensor": {"dtype": "DT_FLOAT", "tensorShape": {"dim": [{"size": "1"}, {"size": "1"}, {"size": "32"}, {"size": "192"}]}}}}}, {"name": "mnas_v4_a_035_1/feature_network/lead_cell_12/op_0/expand_0/Conv2D_bn_offset", "op": "Const", "attr": {"value": {"tensor": {"dtype": "DT_FLOAT", "tensorShape": {"dim": [{"size": "192"}]}}}, "dtype": {"type": "DT_FLOAT"}}}, {"name": "mnas_v4_a_035_1/feature_network/lead_cell_12/op_0/depthwise_0/depthwise_weights", "op": "Const", "attr": {"value": {"tensor": {"dtype": "DT_FLOAT", "tensorShape": {"dim": [{"size": "5"}, {"size": "5"}, {"size": "192"}, {"size": "1"}]}}}, "dtype": {"type": "DT_FLOAT"}}}, {"name": "mnas_v4_a_035_1/feature_network/lead_cell_12/op_0/depthwise_0/depthwise_bn_offset", "op": "Const", "attr": {"value": {"tensor": {"dtype": "DT_FLOAT", "tensorShape": {"dim": [{"size": "192"}]}}}, "dtype": {"type": "DT_FLOAT"}}}, {"name": "mnas_v4_a_035_1/feature_network/lead_cell_12/op_0/project_0/Conv2D_weights", "op": "Const", "attr": {"value": {"tensor": {"dtype": "DT_FLOAT", "tensorShape": {"dim": [{"size": "1"}, {"size": "1"}, {"size": "192"}, {"size": "64"}]}}}, "dtype": {"type": "DT_FLOAT"}}}, {"name": "mnas_v4_a_035_1/feature_network/lead_cell_16/op_0/project_0/Conv2D_weights", "op": "Const", "attr": {"dtype": {"type": "DT_FLOAT"}, "value": {"tensor": {"dtype": "DT_FLOAT", "tensorShape": {"dim": [{"size": "1"}, {"size": "1"}, {"size": "384"}, {"size": "112"}]}}}}}, {"name": "mnas_v4_a_035_1/feature_network/lead_cell_12/op_0/project_0/Conv2D_bn_offset", "op": "Const", "attr": {"dtype": {"type": "DT_FLOAT"}, "value": {"tensor": {"dtype": "DT_FLOAT", "tensorShape": {"dim": [{"size": "64"}]}}}}}, {"name": "mnas_v4_a_035_1/feature_network/cell_13/op_0/expand_0/Conv2D_weights", "op": "Const", "attr": {"value": {"tensor": {"dtype": "DT_FLOAT", "tensorShape": {"dim": [{"size": "1"}, {"size": "1"}, {"size": "64"}, {"size": "384"}]}}}, "dtype": {"type": "DT_FLOAT"}}}, {"name": "mnas_v4_a_035_1/feature_network/cell_13/op_0/expand_0/Conv2D_bn_offset", "op": "Const", "attr": {"dtype": {"type": "DT_FLOAT"}, "value": {"tensor": {"dtype": "DT_FLOAT", "tensorShape": {"dim": [{"size": "384"}]}}}}}, {"name": "mnas_v4_a_035_1/feature_network/lead_cell_16/op_0/project_0/Conv2D_bn_offset", "op": "Const", "attr": {"dtype": {"type": "DT_FLOAT"}, "value": {"tensor": {"dtype": "DT_FLOAT", "tensorShape": {"dim": [{"size": "112"}]}}}}}, {"name": "mnas_v4_a_035_1/feature_network/cell_13/op_0/depthwise_0/depthwise_weights", "op": "Const", "attr": {"value": {"tensor": {"dtype": "DT_FLOAT", "tensorShape": {"dim": [{"size": "5"}, {"size": "5"}, {"size": "384"}, {"size": "1"}]}}}, "dtype": {"type": "DT_FLOAT"}}}, {"name": "mnas_v4_a_035_1/feature_network/cell_13/op_0/depthwise_0/depthwise_bn_offset", "op": "Const", "attr": {"value": {"tensor": {"dtype": "DT_FLOAT", "tensorShape": {"dim": [{"size": "384"}]}}}, "dtype": {"type": "DT_FLOAT"}}}, {"name": "mnas_v4_a_035_1/feature_network/cell_13/op_0/project_0/Conv2D_weights", "op": "Const", "attr": {"value": {"tensor": {"dtype": "DT_FLOAT", "tensorShape": {"dim": [{"size": "1"}, {"size": "1"}, {"size": "384"}, {"size": "64"}]}}}, "dtype": {"type": "DT_FLOAT"}}}, {"name": "mnas_v4_a_035_1/feature_network/cell_13/op_0/project_0/Conv2D_bn_offset", "op": "Const", "attr": {"value": {"tensor": {"dtype": "DT_FLOAT", "tensorShape": {"dim": [{"size": "64"}]}}}, "dtype": {"type": "DT_FLOAT"}}}, {"name": "mnas_v4_a_035_1/feature_network/cell_14/op_0/expand_0/Conv2D_weights", "op": "Const", "attr": {"value": {"tensor": {"dtype": "DT_FLOAT", "tensorShape": {"dim": [{"size": "1"}, {"size": "1"}, {"size": "64"}, {"size": "384"}]}}}, "dtype": {"type": "DT_FLOAT"}}}, {"name": "mnas_v4_a_035_1/feature_network/lead_cell_17/op_0/conv2d_0/Conv2D_weights", "op": "Const", "attr": {"value": {"tensor": {"dtype": "DT_FLOAT", "tensorShape": {"dim": [{"size": "1"}, {"size": "1"}, {"size": "112"}, {"size": "1280"}]}}}, "dtype": {"type": "DT_FLOAT"}}}, {"name": "mnas_v4_a_035_1/feature_network/cell_14/op_0/expand_0/Conv2D_bn_offset", "op": "Const", "attr": {"value": {"tensor": {"dtype": "DT_FLOAT", "tensorShape": {"dim": [{"size": "384"}]}}}, "dtype": {"type": "DT_FLOAT"}}}, {"name": "mnas_v4_a_035_1/feature_network/stem/bn/FusedBatchNorm", "op": "_FusedConv2D", "input": ["image", "mnas_v4_a_035_1/feature_network/stem/conv/Conv2D_weights", "mnas_v4_a_035_1/feature_network/stem/conv/Conv2D_bn_offset"], "device": "/device:CPU:0", "attr": {"padding": {"s": "U0FNRQ=="}, "dilations": {"list": {"i": ["1", "1", "1", "1"]}}, "epsilon": {"f": 0.0}, "T": {"type": "DT_FLOAT"}, "strides": {"list": {"i": ["1", "2", "2", "1"]}}, "data_format": {"s": "TkhXQw=="}, "num_args": {"i": "1"}, "explicit_paddings": {"list": {}}, "fused_ops": {"list": {"s": ["Qmlhc0FkZA=="]}}, "use_cudnn_on_gpu": {"b": true}}}, {"name": "mnas_v4_a_035_1/feature_network/lead_cell_0/op_0/depthwise_0/depthwise", "op": "FusedDepthwiseConv2dNative", "input": ["mnas_v4_a_035_1/feature_network/stem/bn/FusedBatchNorm", "mnas_v4_a_035_1/feature_network/lead_cell_0/op_0/depthwise_0/depthwise_weights", "mnas_v4_a_035_1/feature_network/lead_cell_0/op_0/depthwise_0/depthwise_bn_offset"], "attr": {"num_args": {"i": "1"}, "fused_ops": {"list": {"s": ["Qmlhc0FkZA==", "UmVsdQ=="]}}, "padding": {"s": "U0FNRQ=="}, "dilations": {"list": {"i": ["1", "1", "1", "1"]}}, "T": {"type": "DT_FLOAT"}, "strides": {"list": {"i": ["1", "1", "1", "1"]}}, "data_format": {"s": "TkhXQw=="}}}, {"name": "mnas_v4_a_035_1/feature_network/lead_cell_0/op_0/bn2_0/FusedBatchNorm", "op": "_FusedConv2D", "input": ["mnas_v4_a_035_1/feature_network/lead_cell_0/op_0/depthwise_0/depthwise", "mnas_v4_a_035_1/feature_network/lead_cell_0/op_0/project_0/Conv2D_weights", "mnas_v4_a_035_1/feature_network/lead_cell_0/op_0/project_0/Conv2D_bn_offset"], "device": "/device:CPU:0", "attr": {"explicit_paddings": {"list": {}}, "num_args": {"i": "1"}, "fused_ops": {"list": {"s": ["Qmlhc0FkZA=="]}}, "use_cudnn_on_gpu": {"b": true}, "padding": {"s": "U0FNRQ=="}, "dilations": {"list": {"i": ["1", "1", "1", "1"]}}, "epsilon": {"f": 0.0}, "T": {"type": "DT_FLOAT"}, "strides": {"list": {"i": ["1", "1", "1", "1"]}}, "data_format": {"s": "TkhXQw=="}}}, {"name": "mnas_v4_a_035_1/feature_network/lead_cell_1/op_0/Relu", "op": "_FusedConv2D", "input": ["mnas_v4_a_035_1/feature_network/lead_cell_0/op_0/bn2_0/FusedBatchNorm", "mnas_v4_a_035_1/feature_network/lead_cell_1/op_0/expand_0/Conv2D_weights", "mnas_v4_a_035_1/feature_network/lead_cell_1/op_0/expand_0/Conv2D_bn_offset"], "device": "/device:CPU:0", "attr": {"padding": {"s": "U0FNRQ=="}, "dilations": {"list": {"i": ["1", "1", "1", "1"]}}, "epsilon": {"f": 0.0}, "T": {"type": "DT_FLOAT"}, "strides": {"list": {"i": ["1", "1", "1", "1"]}}, "data_format": {"s": "TkhXQw=="}, "explicit_paddings": {"list": {}}, "num_args": {"i": "1"}, "fused_ops": {"list": {"s": ["Qmlhc0FkZA==", "UmVsdQ=="]}}, "use_cudnn_on_gpu": {"b": true}}}, {"name": "mnas_v4_a_035_1/feature_network/lead_cell_1/op_0/depthwise_0/depthwise", "op": "FusedDepthwiseConv2dNative", "input": ["mnas_v4_a_035_1/feature_network/lead_cell_1/op_0/Relu", "mnas_v4_a_035_1/feature_network/lead_cell_1/op_0/depthwise_0/depthwise_weights", "mnas_v4_a_035_1/feature_network/lead_cell_1/op_0/depthwise_0/depthwise_bn_offset"], "attr": {"T": {"type": "DT_FLOAT"}, "strides": {"list": {"i": ["1", "2", "2", "1"]}}, "data_format": {"s": "TkhXQw=="}, "num_args": {"i": "1"}, "fused_ops": {"list": {"s": ["Qmlhc0FkZA==", "UmVsdQ=="]}}, "padding": {"s": "U0FNRQ=="}, "dilations": {"list": {"i": ["1", "1", "1", "1"]}}}}, {"name": "mnas_v4_a_035_1/feature_network/lead_cell_1/op_0/bn2_0/FusedBatchNorm", "op": "_FusedConv2D", "input": ["mnas_v4_a_035_1/feature_network/lead_cell_1/op_0/depthwise_0/depthwise", "mnas_v4_a_035_1/feature_network/lead_cell_1/op_0/project_0/Conv2D_weights", "mnas_v4_a_035_1/feature_network/lead_cell_1/op_0/project_0/Conv2D_bn_offset"], "device": "/device:CPU:0", "attr": {"epsilon": {"f": 0.0}, "T": {"type": "DT_FLOAT"}, "strides": {"list": {"i": ["1", "1", "1", "1"]}}, "data_format": {"s": "TkhXQw=="}, "explicit_paddings": {"list": {}}, "num_args": {"i": "1"}, "fused_ops": {"list": {"s": ["Qmlhc0FkZA=="]}}, "use_cudnn_on_gpu": {"b": true}, "padding": {"s": "U0FNRQ=="}, "dilations": {"list": {"i": ["1", "1", "1", "1"]}}}}, {"name": "mnas_v4_a_035_1/feature_network/cell_2/op_0/Relu", "op": "_FusedConv2D", "input": ["mnas_v4_a_035_1/feature_network/lead_cell_1/op_0/bn2_0/FusedBatchNorm", "mnas_v4_a_035_1/feature_network/cell_2/op_0/expand_0/Conv2D_weights", "mnas_v4_a_035_1/feature_network/cell_2/op_0/expand_0/Conv2D_bn_offset"], "device": "/device:CPU:0", "attr": {"epsilon": {"f": 0.0}, "strides": {"list": {"i": ["1", "1", "1", "1"]}}, "T": {"type": "DT_FLOAT"}, "data_format": {"s": "TkhXQw=="}, "explicit_paddings": {"list": {}}, "num_args": {"i": "1"}, "fused_ops": {"list": {"s": ["Qmlhc0FkZA==", "UmVsdQ=="]}}, "use_cudnn_on_gpu": {"b": true}, "padding": {"s": "U0FNRQ=="}, "dilations": {"list": {"i": ["1", "1", "1", "1"]}}}}, {"name": "mnas_v4_a_035_1/feature_network/cell_2/op_0/depthwise_0/depthwise", "op": "FusedDepthwiseConv2dNative", "input": ["mnas_v4_a_035_1/feature_network/cell_2/op_0/Relu", "mnas_v4_a_035_1/feature_network/cell_2/op_0/depthwise_0/depthwise_weights", "mnas_v4_a_035_1/feature_network/cell_2/op_0/depthwise_0/depthwise_bn_offset"], "attr": {"padding": {"s": "U0FNRQ=="}, "dilations": {"list": {"i": ["1", "1", "1", "1"]}}, "T": {"type": "DT_FLOAT"}, "strides": {"list": {"i": ["1", "1", "1", "1"]}}, "data_format": {"s": "TkhXQw=="}, "num_args": {"i": "1"}, "fused_ops": {"list": {"s": ["Qmlhc0FkZA==", "UmVsdQ=="]}}}}, {"name": "mnas_v4_a_035_1/feature_network/cell_2/op_0/bn2_0/FusedBatchNorm", "op": "_FusedConv2D", "input": ["mnas_v4_a_035_1/feature_network/cell_2/op_0/depthwise_0/depthwise", "mnas_v4_a_035_1/feature_network/cell_2/op_0/project_0/Conv2D_weights", "mnas_v4_a_035_1/feature_network/cell_2/op_0/project_0/Conv2D_bn_offset"], "device": "/device:CPU:0", "attr": {"dilations": {"list": {"i": ["1", "1", "1", "1"]}}, "epsilon": {"f": 0.0}, "T": {"type": "DT_FLOAT"}, "strides": {"list": {"i": ["1", "1", "1", "1"]}}, "data_format": {"s": "TkhXQw=="}, "num_args": {"i": "1"}, "explicit_paddings": {"list": {}}, "fused_ops": {"list": {"s": ["Qmlhc0FkZA=="]}}, "use_cudnn_on_gpu": {"b": true}, "padding": {"s": "U0FNRQ=="}}}, {"name": "mnas_v4_a_035_1/feature_network/cell_2/output", "op": "Add", "input": ["mnas_v4_a_035_1/feature_network/cell_2/op_0/bn2_0/FusedBatchNorm", "mnas_v4_a_035_1/feature_network/lead_cell_1/op_0/bn2_0/FusedBatchNorm"], "attr": {"T": {"type": "DT_FLOAT"}}}, {"name": "mnas_v4_a_035_1/feature_network/cell_3/op_0/Relu", "op": "_FusedConv2D", "input": ["mnas_v4_a_035_1/feature_network/cell_2/output", "mnas_v4_a_035_1/feature_network/cell_3/op_0/expand_0/Conv2D_weights", "mnas_v4_a_035_1/feature_network/cell_3/op_0/expand_0/Conv2D_bn_offset"], "device": "/device:CPU:0", "attr": {"explicit_paddings": {"list": {}}, "num_args": {"i": "1"}, "fused_ops": {"list": {"s": ["Qmlhc0FkZA==", "UmVsdQ=="]}}, "use_cudnn_on_gpu": {"b": true}, "padding": {"s": "U0FNRQ=="}, "dilations": {"list": {"i": ["1", "1", "1", "1"]}}, "epsilon": {"f": 0.0}, "strides": {"list": {"i": ["1", "1", "1", "1"]}}, "T": {"type": "DT_FLOAT"}, "data_format": {"s": "TkhXQw=="}}}, {"name": "mnas_v4_a_035_1/feature_network/cell_3/op_0/depthwise_0/depthwise", "op": "FusedDepthwiseConv2dNative", "input": ["mnas_v4_a_035_1/feature_network/cell_3/op_0/Relu", "mnas_v4_a_035_1/feature_network/cell_3/op_0/depthwise_0/depthwise_weights", "mnas_v4_a_035_1/feature_network/cell_3/op_0/depthwise_0/depthwise_bn_offset"], "attr": {"T": {"type": "DT_FLOAT"}, "strides": {"list": {"i": ["1", "1", "1", "1"]}}, "data_format": {"s": "TkhXQw=="}, "num_args": {"i": "1"}, "fused_ops": {"list": {"s": ["Qmlhc0FkZA==", "UmVsdQ=="]}}, "padding": {"s": "U0FNRQ=="}, "dilations": {"list": {"i": ["1", "1", "1", "1"]}}}}, {"name": "mnas_v4_a_035_1/feature_network/cell_3/op_0/bn2_0/FusedBatchNorm", "op": "_FusedConv2D", "input": ["mnas_v4_a_035_1/feature_network/cell_3/op_0/depthwise_0/depthwise", "mnas_v4_a_035_1/feature_network/cell_3/op_0/project_0/Conv2D_weights", "mnas_v4_a_035_1/feature_network/cell_3/op_0/project_0/Conv2D_bn_offset"], "device": "/device:CPU:0", "attr": {"T": {"type": "DT_FLOAT"}, "strides": {"list": {"i": ["1", "1", "1", "1"]}}, "data_format": {"s": "TkhXQw=="}, "num_args": {"i": "1"}, "explicit_paddings": {"list": {}}, "fused_ops": {"list": {"s": ["Qmlhc0FkZA=="]}}, "use_cudnn_on_gpu": {"b": true}, "padding": {"s": "U0FNRQ=="}, "dilations": {"list": {"i": ["1", "1", "1", "1"]}}, "epsilon": {"f": 0.0}}}, {"name": "mnas_v4_a_035_1/feature_network/cell_3/output", "op": "Add", "input": ["mnas_v4_a_035_1/feature_network/cell_2/output", "mnas_v4_a_035_1/feature_network/cell_3/op_0/bn2_0/FusedBatchNorm"], "attr": {"T": {"type": "DT_FLOAT"}}}, {"name": "mnas_v4_a_035_1/feature_network/lead_cell_4/op_0/Relu", "op": "_FusedConv2D", "input": ["mnas_v4_a_035_1/feature_network/cell_3/output", "mnas_v4_a_035_1/feature_network/lead_cell_4/op_0/expand_0/Conv2D_weights", "mnas_v4_a_035_1/feature_network/lead_cell_4/op_0/expand_0/Conv2D_bn_offset"], "device": "/device:CPU:0", "attr": {"padding": {"s": "U0FNRQ=="}, "dilations": {"list": {"i": ["1", "1", "1", "1"]}}, "epsilon": {"f": 0.0}, "T": {"type": "DT_FLOAT"}, "strides": {"list": {"i": ["1", "1", "1", "1"]}}, "data_format": {"s": "TkhXQw=="}, "explicit_paddings": {"list": {}}, "num_args": {"i": "1"}, "fused_ops": {"list": {"s": ["Qmlhc0FkZA==", "UmVsdQ=="]}}, "use_cudnn_on_gpu": {"b": true}}}, {"name": "mnas_v4_a_035_1/feature_network/lead_cell_4/op_0/depthwise_0/depthwise", "op": "FusedDepthwiseConv2dNative", "input": ["mnas_v4_a_035_1/feature_network/lead_cell_4/op_0/Relu", "mnas_v4_a_035_1/feature_network/lead_cell_4/op_0/depthwise_0/depthwise_weights", "mnas_v4_a_035_1/feature_network/lead_cell_4/op_0/depthwise_0/depthwise_bn_offset"], "attr": {"T": {"type": "DT_FLOAT"}, "strides": {"list": {"i": ["1", "2", "2", "1"]}}, "data_format": {"s": "TkhXQw=="}, "num_args": {"i": "1"}, "fused_ops": {"list": {"s": ["Qmlhc0FkZA==", "UmVsdQ=="]}}, "padding": {"s": "U0FNRQ=="}, "dilations": {"list": {"i": ["1", "1", "1", "1"]}}}}, {"name": "mnas_v4_a_035_1/feature_network/lead_cell_4/op_0/bn2_0/FusedBatchNorm", "op": "_FusedConv2D", "input": ["mnas_v4_a_035_1/feature_network/lead_cell_4/op_0/depthwise_0/depthwise", "mnas_v4_a_035_1/feature_network/lead_cell_4/op_0/project_0/Conv2D_weights", "mnas_v4_a_035_1/feature_network/lead_cell_4/op_0/project_0/Conv2D_bn_offset"], "device": "/device:CPU:0", "attr": {"strides": {"list": {"i": ["1", "1", "1", "1"]}}, "T": {"type": "DT_FLOAT"}, "data_format": {"s": "TkhXQw=="}, "explicit_paddings": {"list": {}}, "num_args": {"i": "1"}, "fused_ops": {"list": {"s": ["Qmlhc0FkZA=="]}}, "use_cudnn_on_gpu": {"b": true}, "padding": {"s": "U0FNRQ=="}, "dilations": {"list": {"i": ["1", "1", "1", "1"]}}, "epsilon": {"f": 0.0}}}, {"name": "mnas_v4_a_035_1/feature_network/cell_5/op_0/Relu", "op": "_FusedConv2D", "input": ["mnas_v4_a_035_1/feature_network/lead_cell_4/op_0/bn2_0/FusedBatchNorm", "mnas_v4_a_035_1/feature_network/cell_5/op_0/expand_0/Conv2D_weights", "mnas_v4_a_035_1/feature_network/cell_5/op_0/expand_0/Conv2D_bn_offset"], "device": "/device:CPU:0", "attr": {"use_cudnn_on_gpu": {"b": true}, "padding": {"s": "U0FNRQ=="}, "dilations": {"list": {"i": ["1", "1", "1", "1"]}}, "epsilon": {"f": 0.0}, "T": {"type": "DT_FLOAT"}, "strides": {"list": {"i": ["1", "1", "1", "1"]}}, "data_format": {"s": "TkhXQw=="}, "num_args": {"i": "1"}, "explicit_paddings": {"list": {}}, "fused_ops": {"list": {"s": ["Qmlhc0FkZA==", "UmVsdQ=="]}}}}, {"name": "mnas_v4_a_035_1/feature_network/cell_5/op_0/depthwise_0/depthwise", "op": "FusedDepthwiseConv2dNative", "input": ["mnas_v4_a_035_1/feature_network/cell_5/op_0/Relu", "mnas_v4_a_035_1/feature_network/cell_5/op_0/depthwise_0/depthwise_weights", "mnas_v4_a_035_1/feature_network/cell_5/op_0/depthwise_0/depthwise_bn_offset"], "attr": {"dilations": {"list": {"i": ["1", "1", "1", "1"]}}, "T": {"type": "DT_FLOAT"}, "strides": {"list": {"i": ["1", "1", "1", "1"]}}, "data_format": {"s": "TkhXQw=="}, "num_args": {"i": "1"}, "fused_ops": {"list": {"s": ["Qmlhc0FkZA==", "UmVsdQ=="]}}, "padding": {"s": "U0FNRQ=="}}}, {"name": "mnas_v4_a_035_1/feature_network/cell_5/op_0/bn2_0/FusedBatchNorm", "op": "_FusedConv2D", "input": ["mnas_v4_a_035_1/feature_network/cell_5/op_0/depthwise_0/depthwise", "mnas_v4_a_035_1/feature_network/cell_5/op_0/project_0/Conv2D_weights", "mnas_v4_a_035_1/feature_network/cell_5/op_0/project_0/Conv2D_bn_offset"], "device": "/device:CPU:0", "attr": {"padding": {"s": "U0FNRQ=="}, "dilations": {"list": {"i": ["1", "1", "1", "1"]}}, "epsilon": {"f": 0.0}, "T": {"type": "DT_FLOAT"}, "strides": {"list": {"i": ["1", "1", "1", "1"]}}, "data_format": {"s": "TkhXQw=="}, "num_args": {"i": "1"}, "explicit_paddings": {"list": {}}, "fused_ops": {"list": {"s": ["Qmlhc0FkZA=="]}}, "use_cudnn_on_gpu": {"b": true}}}, {"name": "mnas_v4_a_035_1/feature_network/cell_5/output", "op": "Add", "input": ["mnas_v4_a_035_1/feature_network/cell_5/op_0/bn2_0/FusedBatchNorm", "mnas_v4_a_035_1/feature_network/lead_cell_4/op_0/bn2_0/FusedBatchNorm"], "attr": {"T": {"type": "DT_FLOAT"}}}, {"name": "mnas_v4_a_035_1/feature_network/cell_6/op_0/Relu", "op": "_FusedConv2D", "input": ["mnas_v4_a_035_1/feature_network/cell_5/output", "mnas_v4_a_035_1/feature_network/cell_6/op_0/expand_0/Conv2D_weights", "mnas_v4_a_035_1/feature_network/cell_6/op_0/expand_0/Conv2D_bn_offset"], "device": "/device:CPU:0", "attr": {"explicit_paddings": {"list": {}}, "num_args": {"i": "1"}, "fused_ops": {"list": {"s": ["Qmlhc0FkZA==", "UmVsdQ=="]}}, "use_cudnn_on_gpu": {"b": true}, "padding": {"s": "U0FNRQ=="}, "dilations": {"list": {"i": ["1", "1", "1", "1"]}}, "epsilon": {"f": 0.0}, "strides": {"list": {"i": ["1", "1", "1", "1"]}}, "T": {"type": "DT_FLOAT"}, "data_format": {"s": "TkhXQw=="}}}, {"name": "mnas_v4_a_035_1/feature_network/cell_6/op_0/depthwise_0/depthwise", "op": "FusedDepthwiseConv2dNative", "input": ["mnas_v4_a_035_1/feature_network/cell_6/op_0/Relu", "mnas_v4_a_035_1/feature_network/cell_6/op_0/depthwise_0/depthwise_weights", "mnas_v4_a_035_1/feature_network/cell_6/op_0/depthwise_0/depthwise_bn_offset"], "attr": {"padding": {"s": "U0FNRQ=="}, "dilations": {"list": {"i": ["1", "1", "1", "1"]}}, "T": {"type": "DT_FLOAT"}, "strides": {"list": {"i": ["1", "1", "1", "1"]}}, "data_format": {"s": "TkhXQw=="}, "num_args": {"i": "1"}, "fused_ops": {"list": {"s": ["Qmlhc0FkZA==", "UmVsdQ=="]}}}}, {"name": "mnas_v4_a_035_1/feature_network/cell_6/op_0/bn2_0/FusedBatchNorm", "op": "_FusedConv2D", "input": ["mnas_v4_a_035_1/feature_network/cell_6/op_0/depthwise_0/depthwise", "mnas_v4_a_035_1/feature_network/cell_6/op_0/project_0/Conv2D_weights", "mnas_v4_a_035_1/feature_network/cell_6/op_0/project_0/Conv2D_bn_offset"], "device": "/device:CPU:0", "attr": {"T": {"type": "DT_FLOAT"}, "strides": {"list": {"i": ["1", "1", "1", "1"]}}, "data_format": {"s": "TkhXQw=="}, "num_args": {"i": "1"}, "explicit_paddings": {"list": {}}, "fused_ops": {"list": {"s": ["Qmlhc0FkZA=="]}}, "use_cudnn_on_gpu": {"b": true}, "padding": {"s": "U0FNRQ=="}, "dilations": {"list": {"i": ["1", "1", "1", "1"]}}, "epsilon": {"f": 0.0}}}, {"name": "mnas_v4_a_035_1/feature_network/cell_6/output", "op": "Add", "input": ["mnas_v4_a_035_1/feature_network/cell_5/output", "mnas_v4_a_035_1/feature_network/cell_6/op_0/bn2_0/FusedBatchNorm"], "attr": {"T": {"type": "DT_FLOAT"}}}, {"name": "mnas_v4_a_035_1/feature_network/lead_cell_7/op_0/Relu", "op": "_FusedConv2D", "input": ["mnas_v4_a_035_1/feature_network/cell_6/output", "mnas_v4_a_035_1/feature_network/lead_cell_7/op_0/expand_0/Conv2D_weights", "mnas_v4_a_035_1/feature_network/lead_cell_7/op_0/expand_0/Conv2D_bn_offset"], "device": "/device:CPU:0", "attr": {"num_args": {"i": "1"}, "explicit_paddings": {"list": {}}, "fused_ops": {"list": {"s": ["Qmlhc0FkZA==", "UmVsdQ=="]}}, "use_cudnn_on_gpu": {"b": true}, "padding": {"s": "U0FNRQ=="}, "dilations": {"list": {"i": ["1", "1", "1", "1"]}}, "epsilon": {"f": 0.0}, "strides": {"list": {"i": ["1", "1", "1", "1"]}}, "T": {"type": "DT_FLOAT"}, "data_format": {"s": "TkhXQw=="}}}, {"name": "mnas_v4_a_035_1/feature_network/lead_cell_7/op_0/depthwise_0/depthwise", "op": "FusedDepthwiseConv2dNative", "input": ["mnas_v4_a_035_1/feature_network/lead_cell_7/op_0/Relu", "mnas_v4_a_035_1/feature_network/lead_cell_7/op_0/depthwise_0/depthwise_weights", "mnas_v4_a_035_1/feature_network/lead_cell_7/op_0/depthwise_0/depthwise_bn_offset"], "attr": {"padding": {"s": "U0FNRQ=="}, "dilations": {"list": {"i": ["1", "1", "1", "1"]}}, "T": {"type": "DT_FLOAT"}, "strides": {"list": {"i": ["1", "2", "2", "1"]}}, "data_format": {"s": "TkhXQw=="}, "num_args": {"i": "1"}, "fused_ops": {"list": {"s": ["Qmlhc0FkZA==", "UmVsdQ=="]}}}}, {"name": "mnas_v4_a_035_1/feature_network/lead_cell_7/op_0/bn2_0/FusedBatchNorm", "op": "_FusedConv2D", "input": ["mnas_v4_a_035_1/feature_network/lead_cell_7/op_0/depthwise_0/depthwise", "mnas_v4_a_035_1/feature_network/lead_cell_7/op_0/project_0/Conv2D_weights", "mnas_v4_a_035_1/feature_network/lead_cell_7/op_0/project_0/Conv2D_bn_offset"], "device": "/device:CPU:0", "attr": {"epsilon": {"f": 0.0}, "T": {"type": "DT_FLOAT"}, "strides": {"list": {"i": ["1", "1", "1", "1"]}}, "data_format": {"s": "TkhXQw=="}, "num_args": {"i": "1"}, "explicit_paddings": {"list": {}}, "fused_ops": {"list": {"s": ["Qmlhc0FkZA=="]}}, "use_cudnn_on_gpu": {"b": true}, "padding": {"s": "U0FNRQ=="}, "dilations": {"list": {"i": ["1", "1", "1", "1"]}}}}, {"name": "mnas_v4_a_035_1/feature_network/cell_8/op_0/Relu", "op": "_FusedConv2D", "input": ["mnas_v4_a_035_1/feature_network/lead_cell_7/op_0/bn2_0/FusedBatchNorm", "mnas_v4_a_035_1/feature_network/cell_8/op_0/expand_0/Conv2D_weights", "mnas_v4_a_035_1/feature_network/cell_8/op_0/expand_0/Conv2D_bn_offset"], "device": "/device:CPU:0", "attr": {"use_cudnn_on_gpu": {"b": true}, "padding": {"s": "U0FNRQ=="}, "dilations": {"list": {"i": ["1", "1", "1", "1"]}}, "epsilon": {"f": 0.0}, "strides": {"list": {"i": ["1", "1", "1", "1"]}}, "T": {"type": "DT_FLOAT"}, "data_format": {"s": "TkhXQw=="}, "explicit_paddings": {"list": {}}, "num_args": {"i": "1"}, "fused_ops": {"list": {"s": ["Qmlhc0FkZA==", "UmVsdQ=="]}}}}, {"name": "mnas_v4_a_035_1/feature_network/cell_8/op_0/depthwise_0/depthwise", "op": "FusedDepthwiseConv2dNative", "input": ["mnas_v4_a_035_1/feature_network/cell_8/op_0/Relu", "mnas_v4_a_035_1/feature_network/cell_8/op_0/depthwise_0/depthwise_weights", "mnas_v4_a_035_1/feature_network/cell_8/op_0/depthwise_0/depthwise_bn_offset"], "attr": {"num_args": {"i": "1"}, "fused_ops": {"list": {"s": ["Qmlhc0FkZA==", "UmVsdQ=="]}}, "padding": {"s": "U0FNRQ=="}, "dilations": {"list": {"i": ["1", "1", "1", "1"]}}, "strides": {"list": {"i": ["1", "1", "1", "1"]}}, "T": {"type": "DT_FLOAT"}, "data_format": {"s": "TkhXQw=="}}}, {"name": "mnas_v4_a_035_1/feature_network/cell_8/op_0/bn2_0/FusedBatchNorm", "op": "_FusedConv2D", "input": ["mnas_v4_a_035_1/feature_network/cell_8/op_0/depthwise_0/depthwise", "mnas_v4_a_035_1/feature_network/cell_8/op_0/project_0/Conv2D_weights", "mnas_v4_a_035_1/feature_network/cell_8/op_0/project_0/Conv2D_bn_offset"], "device": "/device:CPU:0", "attr": {"num_args": {"i": "1"}, "explicit_paddings": {"list": {}}, "fused_ops": {"list": {"s": ["Qmlhc0FkZA=="]}}, "use_cudnn_on_gpu": {"b": true}, "padding": {"s": "U0FNRQ=="}, "dilations": {"list": {"i": ["1", "1", "1", "1"]}}, "epsilon": {"f": 0.0}, "strides": {"list": {"i": ["1", "1", "1", "1"]}}, "T": {"type": "DT_FLOAT"}, "data_format": {"s": "TkhXQw=="}}}, {"name": "mnas_v4_a_035_1/feature_network/cell_8/output", "op": "Add", "input": ["mnas_v4_a_035_1/feature_network/cell_8/op_0/bn2_0/FusedBatchNorm", "mnas_v4_a_035_1/feature_network/lead_cell_7/op_0/bn2_0/FusedBatchNorm"], "attr": {"T": {"type": "DT_FLOAT"}}}, {"name": "mnas_v4_a_035_1/feature_network/cell_9/op_0/Relu", "op": "_FusedConv2D", "input": ["mnas_v4_a_035_1/feature_network/cell_8/output", "mnas_v4_a_035_1/feature_network/cell_9/op_0/expand_0/Conv2D_weights", "mnas_v4_a_035_1/feature_network/cell_9/op_0/expand_0/Conv2D_bn_offset"], "device": "/device:CPU:0", "attr": {"use_cudnn_on_gpu": {"b": true}, "padding": {"s": "U0FNRQ=="}, "dilations": {"list": {"i": ["1", "1", "1", "1"]}}, "epsilon": {"f": 0.0}, "T": {"type": "DT_FLOAT"}, "strides": {"list": {"i": ["1", "1", "1", "1"]}}, "data_format": {"s": "TkhXQw=="}, "explicit_paddings": {"list": {}}, "num_args": {"i": "1"}, "fused_ops": {"list": {"s": ["Qmlhc0FkZA==", "UmVsdQ=="]}}}}, {"name": "mnas_v4_a_035_1/feature_network/cell_9/op_0/depthwise_0/depthwise", "op": "FusedDepthwiseConv2dNative", "input": ["mnas_v4_a_035_1/feature_network/cell_9/op_0/Relu", "mnas_v4_a_035_1/feature_network/cell_9/op_0/depthwise_0/depthwise_weights", "mnas_v4_a_035_1/feature_network/cell_9/op_0/depthwise_0/depthwise_bn_offset"], "attr": {"T": {"type": "DT_FLOAT"}, "strides": {"list": {"i": ["1", "1", "1", "1"]}}, "data_format": {"s": "TkhXQw=="}, "num_args": {"i": "1"}, "fused_ops": {"list": {"s": ["Qmlhc0FkZA==", "UmVsdQ=="]}}, "padding": {"s": "U0FNRQ=="}, "dilations": {"list": {"i": ["1", "1", "1", "1"]}}}}, {"name": "mnas_v4_a_035_1/feature_network/cell_9/op_0/bn2_0/FusedBatchNorm", "op": "_FusedConv2D", "input": ["mnas_v4_a_035_1/feature_network/cell_9/op_0/depthwise_0/depthwise", "mnas_v4_a_035_1/feature_network/cell_9/op_0/project_0/Conv2D_weights", "mnas_v4_a_035_1/feature_network/cell_9/op_0/project_0/Conv2D_bn_offset"], "device": "/device:CPU:0", "attr": {"use_cudnn_on_gpu": {"b": true}, "padding": {"s": "U0FNRQ=="}, "dilations": {"list": {"i": ["1", "1", "1", "1"]}}, "epsilon": {"f": 0.0}, "strides": {"list": {"i": ["1", "1", "1", "1"]}}, "T": {"type": "DT_FLOAT"}, "data_format": {"s": "TkhXQw=="}, "num_args": {"i": "1"}, "explicit_paddings": {"list": {}}, "fused_ops": {"list": {"s": ["Qmlhc0FkZA=="]}}}}, {"name": "mnas_v4_a_035_1/feature_network/cell_9/output", "op": "Add", "input": ["mnas_v4_a_035_1/feature_network/cell_8/output", "mnas_v4_a_035_1/feature_network/cell_9/op_0/bn2_0/FusedBatchNorm"], "attr": {"T": {"type": "DT_FLOAT"}}}, {"name": "mnas_v4_a_035_1/feature_network/lead_cell_10/op_0/Relu", "op": "_FusedConv2D", "input": ["mnas_v4_a_035_1/feature_network/cell_9/output", "mnas_v4_a_035_1/feature_network/lead_cell_10/op_0/expand_0/Conv2D_weights", "mnas_v4_a_035_1/feature_network/lead_cell_10/op_0/expand_0/Conv2D_bn_offset"], "device": "/device:CPU:0", "attr": {"use_cudnn_on_gpu": {"b": true}, "padding": {"s": "U0FNRQ=="}, "dilations": {"list": {"i": ["1", "1", "1", "1"]}}, "epsilon": {"f": 0.0}, "T": {"type": "DT_FLOAT"}, "strides": {"list": {"i": ["1", "1", "1", "1"]}}, "data_format": {"s": "TkhXQw=="}, "explicit_paddings": {"list": {}}, "num_args": {"i": "1"}, "fused_ops": {"list": {"s": ["Qmlhc0FkZA==", "UmVsdQ=="]}}}}, {"name": "mnas_v4_a_035_1/feature_network/lead_cell_10/op_0/depthwise_0/depthwise", "op": "FusedDepthwiseConv2dNative", "input": ["mnas_v4_a_035_1/feature_network/lead_cell_10/op_0/Relu", "mnas_v4_a_035_1/feature_network/lead_cell_10/op_0/depthwise_0/depthwise_weights", "mnas_v4_a_035_1/feature_network/lead_cell_10/op_0/depthwise_0/depthwise_bn_offset"], "attr": {"padding": {"s": "U0FNRQ=="}, "dilations": {"list": {"i": ["1", "1", "1", "1"]}}, "strides": {"list": {"i": ["1", "1", "1", "1"]}}, "T": {"type": "DT_FLOAT"}, "data_format": {"s": "TkhXQw=="}, "num_args": {"i": "1"}, "fused_ops": {"list": {"s": ["Qmlhc0FkZA==", "UmVsdQ=="]}}}}, {"name": "mnas_v4_a_035_1/feature_network/lead_cell_10/op_0/bn2_0/FusedBatchNorm", "op": "_FusedConv2D", "input": ["mnas_v4_a_035_1/feature_network/lead_cell_10/op_0/depthwise_0/depthwise", "mnas_v4_a_035_1/feature_network/lead_cell_10/op_0/project_0/Conv2D_weights", "mnas_v4_a_035_1/feature_network/lead_cell_10/op_0/project_0/Conv2D_bn_offset"], "device": "/device:CPU:0", "attr": {"T": {"type": "DT_FLOAT"}, "strides": {"list": {"i": ["1", "1", "1", "1"]}}, "data_format": {"s": "TkhXQw=="}, "num_args": {"i": "1"}, "explicit_paddings": {"list": {}}, "fused_ops": {"list": {"s": ["Qmlhc0FkZA=="]}}, "use_cudnn_on_gpu": {"b": true}, "padding": {"s": "U0FNRQ=="}, "dilations": {"list": {"i": ["1", "1", "1", "1"]}}, "epsilon": {"f": 0.0}}}, {"name": "mnas_v4_a_035_1/feature_network/lead_cell_10/output", "op": "Add", "input": ["mnas_v4_a_035_1/feature_network/cell_9/output", "mnas_v4_a_035_1/feature_network/lead_cell_10/op_0/bn2_0/FusedBatchNorm"], "attr": {"T": {"type": "DT_FLOAT"}}}, {"name": "mnas_v4_a_035_1/feature_network/cell_11/op_0/Relu", "op": "_FusedConv2D", "input": ["mnas_v4_a_035_1/feature_network/lead_cell_10/output", "mnas_v4_a_035_1/feature_network/cell_11/op_0/expand_0/Conv2D_weights", "mnas_v4_a_035_1/feature_network/cell_11/op_0/expand_0/Conv2D_bn_offset"], "device": "/device:CPU:0", "attr": {"num_args": {"i": "1"}, "explicit_paddings": {"list": {}}, "fused_ops": {"list": {"s": ["Qmlhc0FkZA==", "UmVsdQ=="]}}, "use_cudnn_on_gpu": {"b": true}, "padding": {"s": "U0FNRQ=="}, "dilations": {"list": {"i": ["1", "1", "1", "1"]}}, "epsilon": {"f": 0.0}, "T": {"type": "DT_FLOAT"}, "strides": {"list": {"i": ["1", "1", "1", "1"]}}, "data_format": {"s": "TkhXQw=="}}}, {"name": "mnas_v4_a_035_1/feature_network/cell_11/op_0/depthwise_0/depthwise", "op": "FusedDepthwiseConv2dNative", "input": ["mnas_v4_a_035_1/feature_network/cell_11/op_0/Relu", "mnas_v4_a_035_1/feature_network/cell_11/op_0/depthwise_0/depthwise_weights", "mnas_v4_a_035_1/feature_network/cell_11/op_0/depthwise_0/depthwise_bn_offset"], "attr": {"padding": {"s": "U0FNRQ=="}, "dilations": {"list": {"i": ["1", "1", "1", "1"]}}, "T": {"type": "DT_FLOAT"}, "strides": {"list": {"i": ["1", "1", "1", "1"]}}, "data_format": {"s": "TkhXQw=="}, "num_args": {"i": "1"}, "fused_ops": {"list": {"s": ["Qmlhc0FkZA==", "UmVsdQ=="]}}}}, {"name": "mnas_v4_a_035_1/feature_network/cell_11/op_0/bn2_0/FusedBatchNorm", "op": "_FusedConv2D", "input": ["mnas_v4_a_035_1/feature_network/cell_11/op_0/depthwise_0/depthwise", "mnas_v4_a_035_1/feature_network/cell_11/op_0/project_0/Conv2D_weights", "mnas_v4_a_035_1/feature_network/cell_11/op_0/project_0/Conv2D_bn_offset"], "device": "/device:CPU:0", "attr": {"padding": {"s": "U0FNRQ=="}, "dilations": {"list": {"i": ["1", "1", "1", "1"]}}, "epsilon": {"f": 0.0}, "strides": {"list": {"i": ["1", "1", "1", "1"]}}, "T": {"type": "DT_FLOAT"}, "data_format": {"s": "TkhXQw=="}, "num_args": {"i": "1"}, "explicit_paddings": {"list": {}}, "fused_ops": {"list": {"s": ["Qmlhc0FkZA=="]}}, "use_cudnn_on_gpu": {"b": true}}}, {"name": "mnas_v4_a_035_1/feature_network/cell_11/output", "op": "Add", "input": ["mnas_v4_a_035_1/feature_network/cell_11/op_0/bn2_0/FusedBatchNorm", "mnas_v4_a_035_1/feature_network/lead_cell_10/output"], "attr": {"T": {"type": "DT_FLOAT"}}}, {"name": "mnas_v4_a_035_1/feature_network/lead_cell_12/op_0/Relu", "op": "_FusedConv2D", "input": ["mnas_v4_a_035_1/feature_network/cell_11/output", "mnas_v4_a_035_1/feature_network/lead_cell_12/op_0/expand_0/Conv2D_weights", "mnas_v4_a_035_1/feature_network/lead_cell_12/op_0/expand_0/Conv2D_bn_offset"], "device": "/device:CPU:0", "attr": {"use_cudnn_on_gpu": {"b": true}, "padding": {"s": "U0FNRQ=="}, "dilations": {"list": {"i": ["1", "1", "1", "1"]}}, "epsilon": {"f": 0.0}, "strides": {"list": {"i": ["1", "1", "1", "1"]}}, "T": {"type": "DT_FLOAT"}, "data_format": {"s": "TkhXQw=="}, "explicit_paddings": {"list": {}}, "num_args": {"i": "1"}, "fused_ops": {"list": {"s": ["Qmlhc0FkZA==", "UmVsdQ=="]}}}}, {"name": "mnas_v4_a_035_1/feature_network/lead_cell_12/op_0/depthwise_0/depthwise", "op": "FusedDepthwiseConv2dNative", "input": ["mnas_v4_a_035_1/feature_network/lead_cell_12/op_0/Relu", "mnas_v4_a_035_1/feature_network/lead_cell_12/op_0/depthwise_0/depthwise_weights", "mnas_v4_a_035_1/feature_network/lead_cell_12/op_0/depthwise_0/depthwise_bn_offset"], "attr": {"padding": {"s": "U0FNRQ=="}, "dilations": {"list": {"i": ["1", "1", "1", "1"]}}, "strides": {"list": {"i": ["1", "2", "2", "1"]}}, "T": {"type": "DT_FLOAT"}, "data_format": {"s": "TkhXQw=="}, "num_args": {"i": "1"}, "fused_ops": {"list": {"s": ["Qmlhc0FkZA==", "UmVsdQ=="]}}}}, {"name": "mnas_v4_a_035_1/feature_network/lead_cell_12/op_0/bn2_0/FusedBatchNorm", "op": "_FusedConv2D", "input": ["mnas_v4_a_035_1/feature_network/lead_cell_12/op_0/depthwise_0/depthwise", "mnas_v4_a_035_1/feature_network/lead_cell_12/op_0/project_0/Conv2D_weights", "mnas_v4_a_035_1/feature_network/lead_cell_12/op_0/project_0/Conv2D_bn_offset"], "device": "/device:CPU:0", "attr": {"explicit_paddings": {"list": {}}, "num_args": {"i": "1"}, "fused_ops": {"list": {"s": ["Qmlhc0FkZA=="]}}, "use_cudnn_on_gpu": {"b": true}, "padding": {"s": "U0FNRQ=="}, "dilations": {"list": {"i": ["1", "1", "1", "1"]}}, "epsilon": {"f": 0.0}, "strides": {"list": {"i": ["1", "1", "1", "1"]}}, "T": {"type": "DT_FLOAT"}, "data_format": {"s": "TkhXQw=="}}}, {"name": "mnas_v4_a_035_1/feature_network/cell_13/op_0/Relu", "op": "_FusedConv2D", "input": ["mnas_v4_a_035_1/feature_network/lead_cell_12/op_0/bn2_0/FusedBatchNorm", "mnas_v4_a_035_1/feature_network/cell_13/op_0/expand_0/Conv2D_weights", "mnas_v4_a_035_1/feature_network/cell_13/op_0/expand_0/Conv2D_bn_offset"], "device": "/device:CPU:0", "attr": {"T": {"type": "DT_FLOAT"}, "strides": {"list": {"i": ["1", "1", "1", "1"]}}, "data_format": {"s": "TkhXQw=="}, "num_args": {"i": "1"}, "explicit_paddings": {"list": {}}, "fused_ops": {"list": {"s": ["Qmlhc0FkZA==", "UmVsdQ=="]}}, "use_cudnn_on_gpu": {"b": true}, "padding": {"s": "U0FNRQ=="}, "dilations": {"list": {"i": ["1", "1", "1", "1"]}}, "epsilon": {"f": 0.0}}}, {"name": "mnas_v4_a_035_1/feature_network/cell_13/op_0/depthwise_0/depthwise", "op": "FusedDepthwiseConv2dNative", "input": ["mnas_v4_a_035_1/feature_network/cell_13/op_0/Relu", "mnas_v4_a_035_1/feature_network/cell_13/op_0/depthwise_0/depthwise_weights", "mnas_v4_a_035_1/feature_network/cell_13/op_0/depthwise_0/depthwise_bn_offset"], "attr": {"num_args": {"i": "1"}, "fused_ops": {"list": {"s": ["Qmlhc0FkZA==", "UmVsdQ=="]}}, "padding": {"s": "U0FNRQ=="}, "dilations": {"list": {"i": ["1", "1", "1", "1"]}}, "strides": {"list": {"i": ["1", "1", "1", "1"]}}, "T": {"type": "DT_FLOAT"}, "data_format": {"s": "TkhXQw=="}}}, {"name": "mnas_v4_a_035_1/feature_network/cell_13/op_0/bn2_0/FusedBatchNorm", "op": "_FusedConv2D", "input": ["mnas_v4_a_035_1/feature_network/cell_13/op_0/depthwise_0/depthwise", "mnas_v4_a_035_1/feature_network/cell_13/op_0/project_0/Conv2D_weights", "mnas_v4_a_035_1/feature_network/cell_13/op_0/project_0/Conv2D_bn_offset"], "device": "/device:CPU:0", "attr": {"use_cudnn_on_gpu": {"b": true}, "padding": {"s": "U0FNRQ=="}, "dilations": {"list": {"i": ["1", "1", "1", "1"]}}, "epsilon": {"f": 0.0}, "strides": {"list": {"i": ["1", "1", "1", "1"]}}, "T": {"type": "DT_FLOAT"}, "data_format": {"s": "TkhXQw=="}, "num_args": {"i": "1"}, "explicit_paddings": {"list": {}}, "fused_ops": {"list": {"s": ["Qmlhc0FkZA=="]}}}}, {"name": "mnas_v4_a_035_1/feature_network/cell_13/output", "op": "Add", "input": ["mnas_v4_a_035_1/feature_network/cell_13/op_0/bn2_0/FusedBatchNorm", "mnas_v4_a_035_1/feature_network/lead_cell_12/op_0/bn2_0/FusedBatchNorm"], "attr": {"T": {"type": "DT_FLOAT"}}}, {"name": "mnas_v4_a_035_1/feature_network/cell_14/op_0/Relu", "op": "_FusedConv2D", "input": ["mnas_v4_a_035_1/feature_network/cell_13/output", "mnas_v4_a_035_1/feature_network/cell_14/op_0/expand_0/Conv2D_weights", "mnas_v4_a_035_1/feature_network/cell_14/op_0/expand_0/Conv2D_bn_offset"], "device": "/device:CPU:0", "attr": {"epsilon": {"f": 0.0}, "strides": {"list": {"i": ["1", "1", "1", "1"]}}, "T": {"type": "DT_FLOAT"}, "data_format": {"s": "TkhXQw=="}, "num_args": {"i": "1"}, "explicit_paddings": {"list": {}}, "fused_ops": {"list": {"s": ["Qmlhc0FkZA==", "UmVsdQ=="]}}, "use_cudnn_on_gpu": {"b": true}, "padding": {"s": "U0FNRQ=="}, "dilations": {"list": {"i": ["1", "1", "1", "1"]}}}}, {"name": "mnas_v4_a_035_1/feature_network/cell_14/op_0/depthwise_0/depthwise", "op": "FusedDepthwiseConv2dNative", "input": ["mnas_v4_a_035_1/feature_network/cell_14/op_0/Relu", "mnas_v4_a_035_1/feature_network/cell_14/op_0/depthwise_0/depthwise_weights", "mnas_v4_a_035_1/feature_network/cell_14/op_0/depthwise_0/depthwise_bn_offset"], "attr": {"padding": {"s": "U0FNRQ=="}, "dilations": {"list": {"i": ["1", "1", "1", "1"]}}, "T": {"type": "DT_FLOAT"}, "strides": {"list": {"i": ["1", "1", "1", "1"]}}, "data_format": {"s": "TkhXQw=="}, "num_args": {"i": "1"}, "fused_ops": {"list": {"s": ["Qmlhc0FkZA==", "UmVsdQ=="]}}}}, {"name": "mnas_v4_a_035_1/feature_network/cell_14/op_0/bn2_0/FusedBatchNorm", "op": "_FusedConv2D", "input": ["mnas_v4_a_035_1/feature_network/cell_14/op_0/depthwise_0/depthwise", "mnas_v4_a_035_1/feature_network/cell_14/op_0/project_0/Conv2D_weights", "mnas_v4_a_035_1/feature_network/cell_14/op_0/project_0/Conv2D_bn_offset"], "device": "/device:CPU:0", "attr": {"T": {"type": "DT_FLOAT"}, "strides": {"list": {"i": ["1", "1", "1", "1"]}}, "data_format": {"s": "TkhXQw=="}, "explicit_paddings": {"list": {}}, "num_args": {"i": "1"}, "fused_ops": {"list": {"s": ["Qmlhc0FkZA=="]}}, "use_cudnn_on_gpu": {"b": true}, "padding": {"s": "U0FNRQ=="}, "dilations": {"list": {"i": ["1", "1", "1", "1"]}}, "epsilon": {"f": 0.0}}}, {"name": "mnas_v4_a_035_1/feature_network/cell_14/output", "op": "Add", "input": ["mnas_v4_a_035_1/feature_network/cell_13/output", "mnas_v4_a_035_1/feature_network/cell_14/op_0/bn2_0/FusedBatchNorm"], "attr": {"T": {"type": "DT_FLOAT"}}}, {"name": "mnas_v4_a_035_1/feature_network/cell_15/op_0/Relu", "op": "_FusedConv2D", "input": ["mnas_v4_a_035_1/feature_network/cell_14/output", "mnas_v4_a_035_1/feature_network/cell_15/op_0/expand_0/Conv2D_weights", "mnas_v4_a_035_1/feature_network/cell_15/op_0/expand_0/Conv2D_bn_offset"], "device": "/device:CPU:0", "attr": {"epsilon": {"f": 0.0}, "T": {"type": "DT_FLOAT"}, "strides": {"list": {"i": ["1", "1", "1", "1"]}}, "data_format": {"s": "TkhXQw=="}, "explicit_paddings": {"list": {}}, "num_args": {"i": "1"}, "fused_ops": {"list": {"s": ["Qmlhc0FkZA==", "UmVsdQ=="]}}, "use_cudnn_on_gpu": {"b": true}, "padding": {"s": "U0FNRQ=="}, "dilations": {"list": {"i": ["1", "1", "1", "1"]}}}}, {"name": "mnas_v4_a_035_1/feature_network/cell_15/op_0/depthwise_0/depthwise", "op": "FusedDepthwiseConv2dNative", "input": ["mnas_v4_a_035_1/feature_network/cell_15/op_0/Relu", "mnas_v4_a_035_1/feature_network/cell_15/op_0/depthwise_0/depthwise_weights", "mnas_v4_a_035_1/feature_network/cell_15/op_0/depthwise_0/depthwise_bn_offset"], "attr": {"strides": {"list": {"i": ["1", "1", "1", "1"]}}, "T": {"type": "DT_FLOAT"}, "data_format": {"s": "TkhXQw=="}, "num_args": {"i": "1"}, "fused_ops": {"list": {"s": ["Qmlhc0FkZA==", "UmVsdQ=="]}}, "padding": {"s": "U0FNRQ=="}, "dilations": {"list": {"i": ["1", "1", "1", "1"]}}}}, {"name": "mnas_v4_a_035_1/feature_network/cell_15/op_0/bn2_0/FusedBatchNorm", "op": "_FusedConv2D", "input": ["mnas_v4_a_035_1/feature_network/cell_15/op_0/depthwise_0/depthwise", "mnas_v4_a_035_1/feature_network/cell_15/op_0/project_0/Conv2D_weights", "mnas_v4_a_035_1/feature_network/cell_15/op_0/project_0/Conv2D_bn_offset"], "device": "/device:CPU:0", "attr": {"epsilon": {"f": 0.0}, "strides": {"list": {"i": ["1", "1", "1", "1"]}}, "T": {"type": "DT_FLOAT"}, "data_format": {"s": "TkhXQw=="}, "explicit_paddings": {"list": {}}, "num_args": {"i": "1"}, "fused_ops": {"list": {"s": ["Qmlhc0FkZA=="]}}, "use_cudnn_on_gpu": {"b": true}, "padding": {"s": "U0FNRQ=="}, "dilations": {"list": {"i": ["1", "1", "1", "1"]}}}}, {"name": "mnas_v4_a_035_1/feature_network/cell_15/output", "op": "Add", "input": ["mnas_v4_a_035_1/feature_network/cell_14/output", "mnas_v4_a_035_1/feature_network/cell_15/op_0/bn2_0/FusedBatchNorm"], "attr": {"T": {"type": "DT_FLOAT"}}}, {"name": "mnas_v4_a_035_1/feature_network/lead_cell_16/op_0/Relu", "op": "_FusedConv2D", "input": ["mnas_v4_a_035_1/feature_network/cell_15/output", "mnas_v4_a_035_1/feature_network/lead_cell_16/op_0/expand_0/Conv2D_weights", "mnas_v4_a_035_1/feature_network/lead_cell_16/op_0/expand_0/Conv2D_bn_offset"], "device": "/device:CPU:0", "attr": {"use_cudnn_on_gpu": {"b": true}, "padding": {"s": "U0FNRQ=="}, "dilations": {"list": {"i": ["1", "1", "1", "1"]}}, "epsilon": {"f": 0.0}, "strides": {"list": {"i": ["1", "1", "1", "1"]}}, "T": {"type": "DT_FLOAT"}, "data_format": {"s": "TkhXQw=="}, "num_args": {"i": "1"}, "explicit_paddings": {"list": {}}, "fused_ops": {"list": {"s": ["Qmlhc0FkZA==", "UmVsdQ=="]}}}}, {"name": "mnas_v4_a_035_1/feature_network/lead_cell_16/op_0/depthwise_0/depthwise", "op": "FusedDepthwiseConv2dNative", "input": ["mnas_v4_a_035_1/feature_network/lead_cell_16/op_0/Relu", "mnas_v4_a_035_1/feature_network/lead_cell_16/op_0/depthwise_0/depthwise_weights", "mnas_v4_a_035_1/feature_network/lead_cell_16/op_0/depthwise_0/depthwise_bn_offset"], "attr": {"padding": {"s": "U0FNRQ=="}, "dilations": {"list": {"i": ["1", "1", "1", "1"]}}, "strides": {"list": {"i": ["1", "1", "1", "1"]}}, "T": {"type": "DT_FLOAT"}, "data_format": {"s": "TkhXQw=="}, "num_args": {"i": "1"}, "fused_ops": {"list": {"s": ["Qmlhc0FkZA==", "UmVsdQ=="]}}}}, {"name": "mnas_v4_a_035_1/feature_network/lead_cell_16/op_0/bn2_0/FusedBatchNorm", "op": "_FusedConv2D", "input": ["mnas_v4_a_035_1/feature_network/lead_cell_16/op_0/depthwise_0/depthwise", "mnas_v4_a_035_1/feature_network/lead_cell_16/op_0/project_0/Conv2D_weights", "mnas_v4_a_035_1/feature_network/lead_cell_16/op_0/project_0/Conv2D_bn_offset"], "device": "/device:CPU:0", "attr": {"strides": {"list": {"i": ["1", "1", "1", "1"]}}, "T": {"type": "DT_FLOAT"}, "data_format": {"s": "TkhXQw=="}, "explicit_paddings": {"list": {}}, "num_args": {"i": "1"}, "fused_ops": {"list": {"s": ["Qmlhc0FkZA=="]}}, "use_cudnn_on_gpu": {"b": true}, "padding": {"s": "U0FNRQ=="}, "dilations": {"list": {"i": ["1", "1", "1", "1"]}}, "epsilon": {"f": 0.0}}}, {"name": "mnas_v4_a_035_1/feature_network/lead_cell_17/op_0/Relu", "op": "_FusedConv2D", "input": ["mnas_v4_a_035_1/feature_network/lead_cell_16/op_0/bn2_0/FusedBatchNorm", "mnas_v4_a_035_1/feature_network/lead_cell_17/op_0/conv2d_0/Conv2D_weights", "mnas_v4_a_035_1/feature_network/lead_cell_17/op_0/conv2d_0/Conv2D_bn_offset"], "device": "/device:CPU:0", "attr": {"use_cudnn_on_gpu": {"b": true}, "padding": {"s": "U0FNRQ=="}, "dilations": {"list": {"i": ["1", "1", "1", "1"]}}, "epsilon": {"f": 0.0}, "strides": {"list": {"i": ["1", "1", "1", "1"]}}, "T": {"type": "DT_FLOAT"}, "data_format": {"s": "TkhXQw=="}, "num_args": {"i": "1"}, "explicit_paddings": {"list": {}}, "fused_ops": {"list": {"s": ["Qmlhc0FkZA==", "UmVsdQ=="]}}}}, {"name": "mnas_v4_a_035_1/feature_network/feature_extractor/Mean", "op": "Mean", "input": ["mnas_v4_a_035_1/feature_network/lead_cell_17/op_0/Relu", "mnas_v4_a_035_1/feature_network/feature_extractor/Mean/reduction_indices"], "attr": {"keep_dims": {"b": false}, "Tidx": {"type": "DT_INT32"}, "T": {"type": "DT_FLOAT"}}}, {"name": "mnas_v4_a_035_1/output/fc/BiasAdd", "op": "_FusedMatMul", "input": ["mnas_v4_a_035_1/feature_network/feature_extractor/Mean", "mnas_v4_a_035/output/fc/tf_layer/kernel", "mnas_v4_a_035/output/fc/tf_layer/bias"], "device": "/device:CPU:0", "attr": {"transpose_b": {"b": false}, "epsilon": {"f": 0.0}, "T": {"type": "DT_FLOAT"}, "transpose_a": {"b": false}, "num_args": {"i": "1"}, "fused_ops": {"list": {"s": ["Qmlhc0FkZA=="]}}}}, {"name": "ExpandDims", "op": "ExpandDims", "input": ["mnas_v4_a_035_1/output/fc/BiasAdd", "ExpandDims/dim"], "attr": {"T": {"type": "DT_FLOAT"}, "Tdim": {"type": "DT_INT32"}}}, {"name": "Squeeze", "op": "Squeeze", "input": ["ExpandDims"], "attr": {"T": {"type": "DT_FLOAT"}, "squeeze_dims": {"list": {"i": ["0"]}}}}, {"name": "Softmax", "op": "Softmax", "input": ["Squeeze"], "attr": {"T": {"type": "DT_FLOAT"}}}, {"name": "scores", "op": "Identity", "input": ["Softmax"], "attr": {"T": {"type": "DT_FLOAT"}}}], "versions": {"producer": 245}}, "weightsManifest": [{"paths": ["group1-shard1of1.bin"], "weights": [{"name": "mnas_v4_a_035_1/feature_network/feature_extractor/Mean/reduction_indices", "shape": [2], "dtype": "int32"}, {"name": "mnas_v4_a_035/output/fc/tf_layer/kernel", "shape": [1280, 5], "dtype": "float32"}, {"name": "mnas_v4_a_035/output/fc/tf_layer/bias", "shape": [5], "dtype": "float32"}, {"name": "ExpandDims/dim", "shape": [], "dtype": "int32"}, {"name": "mnas_v4_a_035_1/feature_network/stem/conv/Conv2D_weights", "shape": [3, 3, 3, 16], "dtype": "float32"}, {"name": "mnas_v4_a_035_1/feature_network/stem/conv/Conv2D_bn_offset", "shape": [16], "dtype": "float32"}, {"name": "mnas_v4_a_035_1/feature_network/lead_cell_0/op_0/depthwise_0/depthwise_weights", "shape": [3, 3, 16, 1], "dtype": "float32"}, {"name": "mnas_v4_a_035_1/feature_network/lead_cell_0/op_0/depthwise_0/depthwise_bn_offset", "shape": [16], "dtype": "float32"}, {"name": "mnas_v4_a_035_1/feature_network/lead_cell_0/op_0/project_0/Conv2D_weights", "shape": [1, 1, 16, 8], "dtype": "float32"}, {"name": "mnas_v4_a_035_1/feature_network/lead_cell_0/op_0/project_0/Conv2D_bn_offset", "shape": [8], "dtype": "float32"}, {"name": "mnas_v4_a_035_1/feature_network/lead_cell_1/op_0/expand_0/Conv2D_weights", "shape": [1, 1, 8, 24], "dtype": "float32"}, {"name": "mnas_v4_a_035_1/feature_network/cell_14/op_0/depthwise_0/depthwise_weights", "shape": [5, 5, 384, 1], "dtype": "float32"}, {"name": "mnas_v4_a_035_1/feature_network/lead_cell_1/op_0/expand_0/Conv2D_bn_offset", "shape": [24], "dtype": "float32"}, {"name": "mnas_v4_a_035_1/feature_network/lead_cell_1/op_0/depthwise_0/depthwise_weights", "shape": [3, 3, 24, 1], "dtype": "float32"}, {"name": "mnas_v4_a_035_1/feature_network/lead_cell_1/op_0/depthwise_0/depthwise_bn_offset", "shape": [24], "dtype": "float32"}, {"name": "mnas_v4_a_035_1/feature_network/lead_cell_1/op_0/project_0/Conv2D_weights", "shape": [1, 1, 24, 8], "dtype": "float32"}, {"name": "mnas_v4_a_035_1/feature_network/cell_14/op_0/depthwise_0/depthwise_bn_offset", "shape": [384], "dtype": "float32"}, {"name": "mnas_v4_a_035_1/feature_network/lead_cell_1/op_0/project_0/Conv2D_bn_offset", "shape": [8], "dtype": "float32"}, {"name": "mnas_v4_a_035_1/feature_network/cell_2/op_0/expand_0/Conv2D_weights", "shape": [1, 1, 8, 24], "dtype": "float32"}, {"name": "mnas_v4_a_035_1/feature_network/cell_2/op_0/expand_0/Conv2D_bn_offset", "shape": [24], "dtype": "float32"}, {"name": "mnas_v4_a_035_1/feature_network/cell_2/op_0/depthwise_0/depthwise_weights", "shape": [3, 3, 24, 1], "dtype": "float32"}, {"name": "mnas_v4_a_035_1/feature_network/cell_2/op_0/depthwise_0/depthwise_bn_offset", "shape": [24], "dtype": "float32"}, {"name": "mnas_v4_a_035_1/feature_network/cell_2/op_0/project_0/Conv2D_weights", "shape": [1, 1, 24, 8], "dtype": "float32"}, {"name": "mnas_v4_a_035_1/feature_network/cell_14/op_0/project_0/Conv2D_weights", "shape": [1, 1, 384, 64], "dtype": "float32"}, {"name": "mnas_v4_a_035_1/feature_network/cell_2/op_0/project_0/Conv2D_bn_offset", "shape": [8], "dtype": "float32"}, {"name": "mnas_v4_a_035_1/feature_network/cell_3/op_0/expand_0/Conv2D_weights", "shape": [1, 1, 8, 24], "dtype": "float32"}, {"name": "mnas_v4_a_035_1/feature_network/lead_cell_17/op_0/conv2d_0/Conv2D_bn_offset", "shape": [1280], "dtype": "float32"}, {"name": "mnas_v4_a_035_1/feature_network/cell_3/op_0/expand_0/Conv2D_bn_offset", "shape": [24], "dtype": "float32"}, {"name": "mnas_v4_a_035_1/feature_network/cell_14/op_0/project_0/Conv2D_bn_offset", "shape": [64], "dtype": "float32"}, {"name": "mnas_v4_a_035_1/feature_network/cell_3/op_0/depthwise_0/depthwise_weights", "shape": [3, 3, 24, 1], "dtype": "float32"}, {"name": "mnas_v4_a_035_1/feature_network/cell_3/op_0/depthwise_0/depthwise_bn_offset", "shape": [24], "dtype": "float32"}, {"name": "mnas_v4_a_035_1/feature_network/cell_3/op_0/project_0/Conv2D_weights", "shape": [1, 1, 24, 8], "dtype": "float32"}, {"name": "mnas_v4_a_035_1/feature_network/cell_3/op_0/project_0/Conv2D_bn_offset", "shape": [8], "dtype": "float32"}, {"name": "mnas_v4_a_035_1/feature_network/lead_cell_4/op_0/expand_0/Conv2D_weights", "shape": [1, 1, 8, 24], "dtype": "float32"}, {"name": "mnas_v4_a_035_1/feature_network/lead_cell_4/op_0/expand_0/Conv2D_bn_offset", "shape": [24], "dtype": "float32"}, {"name": "mnas_v4_a_035_1/feature_network/cell_15/op_0/expand_0/Conv2D_weights", "shape": [1, 1, 64, 384], "dtype": "float32"}, {"name": "mnas_v4_a_035_1/feature_network/lead_cell_4/op_0/depthwise_0/depthwise_weights", "shape": [5, 5, 24, 1], "dtype": "float32"}, {"name": "mnas_v4_a_035_1/feature_network/lead_cell_4/op_0/depthwise_0/depthwise_bn_offset", "shape": [24], "dtype": "float32"}, {"name": "mnas_v4_a_035_1/feature_network/lead_cell_4/op_0/project_0/Conv2D_weights", "shape": [1, 1, 24, 16], "dtype": "float32"}, {"name": "mnas_v4_a_035_1/feature_network/lead_cell_4/op_0/project_0/Conv2D_bn_offset", "shape": [16], "dtype": "float32"}, {"name": "mnas_v4_a_035_1/feature_network/cell_5/op_0/expand_0/Conv2D_weights", "shape": [1, 1, 16, 48], "dtype": "float32"}, {"name": "mnas_v4_a_035_1/feature_network/cell_15/op_0/expand_0/Conv2D_bn_offset", "shape": [384], "dtype": "float32"}, {"name": "mnas_v4_a_035_1/feature_network/cell_5/op_0/expand_0/Conv2D_bn_offset", "shape": [48], "dtype": "float32"}, {"name": "mnas_v4_a_035_1/feature_network/cell_5/op_0/depthwise_0/depthwise_weights", "shape": [5, 5, 48, 1], "dtype": "float32"}, {"name": "mnas_v4_a_035_1/feature_network/cell_5/op_0/depthwise_0/depthwise_bn_offset", "shape": [48], "dtype": "float32"}, {"name": "mnas_v4_a_035_1/feature_network/cell_5/op_0/project_0/Conv2D_weights", "shape": [1, 1, 48, 16], "dtype": "float32"}, {"name": "mnas_v4_a_035_1/feature_network/cell_5/op_0/project_0/Conv2D_bn_offset", "shape": [16], "dtype": "float32"}, {"name": "mnas_v4_a_035_1/feature_network/cell_6/op_0/expand_0/Conv2D_weights", "shape": [1, 1, 16, 48], "dtype": "float32"}, {"name": "mnas_v4_a_035_1/feature_network/cell_15/op_0/depthwise_0/depthwise_weights", "shape": [5, 5, 384, 1], "dtype": "float32"}, {"name": "mnas_v4_a_035_1/feature_network/cell_6/op_0/expand_0/Conv2D_bn_offset", "shape": [48], "dtype": "float32"}, {"name": "mnas_v4_a_035_1/feature_network/cell_6/op_0/depthwise_0/depthwise_weights", "shape": [5, 5, 48, 1], "dtype": "float32"}, {"name": "mnas_v4_a_035_1/feature_network/cell_6/op_0/depthwise_0/depthwise_bn_offset", "shape": [48], "dtype": "float32"}, {"name": "mnas_v4_a_035_1/feature_network/cell_6/op_0/project_0/Conv2D_weights", "shape": [1, 1, 48, 16], "dtype": "float32"}, {"name": "mnas_v4_a_035_1/feature_network/cell_15/op_0/depthwise_0/depthwise_bn_offset", "shape": [384], "dtype": "float32"}, {"name": "mnas_v4_a_035_1/feature_network/cell_6/op_0/project_0/Conv2D_bn_offset", "shape": [16], "dtype": "float32"}, {"name": "mnas_v4_a_035_1/feature_network/lead_cell_7/op_0/expand_0/Conv2D_weights", "shape": [1, 1, 16, 96], "dtype": "float32"}, {"name": "mnas_v4_a_035_1/feature_network/lead_cell_7/op_0/expand_0/Conv2D_bn_offset", "shape": [96], "dtype": "float32"}, {"name": "mnas_v4_a_035_1/feature_network/lead_cell_7/op_0/depthwise_0/depthwise_weights", "shape": [5, 5, 96, 1], "dtype": "float32"}, {"name": "mnas_v4_a_035_1/feature_network/lead_cell_7/op_0/depthwise_0/depthwise_bn_offset", "shape": [96], "dtype": "float32"}, {"name": "mnas_v4_a_035_1/feature_network/lead_cell_7/op_0/project_0/Conv2D_weights", "shape": [1, 1, 96, 32], "dtype": "float32"}, {"name": "mnas_v4_a_035_1/feature_network/cell_15/op_0/project_0/Conv2D_weights", "shape": [1, 1, 384, 64], "dtype": "float32"}, {"name": "mnas_v4_a_035_1/feature_network/lead_cell_7/op_0/project_0/Conv2D_bn_offset", "shape": [32], "dtype": "float32"}, {"name": "mnas_v4_a_035_1/feature_network/cell_8/op_0/expand_0/Conv2D_weights", "shape": [1, 1, 32, 192], "dtype": "float32"}, {"name": "mnas_v4_a_035_1/feature_network/cell_8/op_0/expand_0/Conv2D_bn_offset", "shape": [192], "dtype": "float32"}, {"name": "mnas_v4_a_035_1/feature_network/cell_15/op_0/project_0/Conv2D_bn_offset", "shape": [64], "dtype": "float32"}, {"name": "mnas_v4_a_035_1/feature_network/cell_8/op_0/depthwise_0/depthwise_weights", "shape": [5, 5, 192, 1], "dtype": "float32"}, {"name": "mnas_v4_a_035_1/feature_network/cell_8/op_0/depthwise_0/depthwise_bn_offset", "shape": [192], "dtype": "float32"}, {"name": "mnas_v4_a_035_1/feature_network/cell_8/op_0/project_0/Conv2D_weights", "shape": [1, 1, 192, 32], "dtype": "float32"}, {"name": "mnas_v4_a_035_1/feature_network/cell_8/op_0/project_0/Conv2D_bn_offset", "shape": [32], "dtype": "float32"}, {"name": "mnas_v4_a_035_1/feature_network/cell_9/op_0/expand_0/Conv2D_weights", "shape": [1, 1, 32, 192], "dtype": "float32"}, {"name": "mnas_v4_a_035_1/feature_network/cell_9/op_0/expand_0/Conv2D_bn_offset", "shape": [192], "dtype": "float32"}, {"name": "mnas_v4_a_035_1/feature_network/lead_cell_16/op_0/expand_0/Conv2D_weights", "shape": [1, 1, 64, 384], "dtype": "float32"}, {"name": "mnas_v4_a_035_1/feature_network/cell_9/op_0/depthwise_0/depthwise_weights", "shape": [5, 5, 192, 1], "dtype": "float32"}, {"name": "mnas_v4_a_035_1/feature_network/cell_9/op_0/depthwise_0/depthwise_bn_offset", "shape": [192], "dtype": "float32"}, {"name": "mnas_v4_a_035_1/feature_network/cell_9/op_0/project_0/Conv2D_weights", "shape": [1, 1, 192, 32], "dtype": "float32"}, {"name": "mnas_v4_a_035_1/feature_network/cell_9/op_0/project_0/Conv2D_bn_offset", "shape": [32], "dtype": "float32"}, {"name": "mnas_v4_a_035_1/feature_network/lead_cell_10/op_0/expand_0/Conv2D_weights", "shape": [1, 1, 32, 192], "dtype": "float32"}, {"name": "mnas_v4_a_035_1/feature_network/lead_cell_16/op_0/expand_0/Conv2D_bn_offset", "shape": [384], "dtype": "float32"}, {"name": "mnas_v4_a_035_1/feature_network/lead_cell_10/op_0/expand_0/Conv2D_bn_offset", "shape": [192], "dtype": "float32"}, {"name": "mnas_v4_a_035_1/feature_network/lead_cell_10/op_0/depthwise_0/depthwise_weights", "shape": [3, 3, 192, 1], "dtype": "float32"}, {"name": "mnas_v4_a_035_1/feature_network/lead_cell_10/op_0/depthwise_0/depthwise_bn_offset", "shape": [192], "dtype": "float32"}, {"name": "mnas_v4_a_035_1/feature_network/lead_cell_10/op_0/project_0/Conv2D_weights", "shape": [1, 1, 192, 32], "dtype": "float32"}, {"name": "mnas_v4_a_035_1/feature_network/lead_cell_10/op_0/project_0/Conv2D_bn_offset", "shape": [32], "dtype": "float32"}, {"name": "mnas_v4_a_035_1/feature_network/cell_11/op_0/expand_0/Conv2D_weights", "shape": [1, 1, 32, 192], "dtype": "float32"}, {"name": "mnas_v4_a_035_1/feature_network/lead_cell_16/op_0/depthwise_0/depthwise_weights", "shape": [3, 3, 384, 1], "dtype": "float32"}, {"name": "mnas_v4_a_035_1/feature_network/cell_11/op_0/expand_0/Conv2D_bn_offset", "shape": [192], "dtype": "float32"}, {"name": "mnas_v4_a_035_1/feature_network/cell_11/op_0/depthwise_0/depthwise_weights", "shape": [3, 3, 192, 1], "dtype": "float32"}, {"name": "mnas_v4_a_035_1/feature_network/cell_11/op_0/depthwise_0/depthwise_bn_offset", "shape": [192], "dtype": "float32"}, {"name": "mnas_v4_a_035_1/feature_network/cell_11/op_0/project_0/Conv2D_weights", "shape": [1, 1, 192, 32], "dtype": "float32"}, {"name": "mnas_v4_a_035_1/feature_network/lead_cell_16/op_0/depthwise_0/depthwise_bn_offset", "shape": [384], "dtype": "float32"}, {"name": "mnas_v4_a_035_1/feature_network/cell_11/op_0/project_0/Conv2D_bn_offset", "shape": [32], "dtype": "float32"}, {"name": "mnas_v4_a_035_1/feature_network/lead_cell_12/op_0/expand_0/Conv2D_weights", "shape": [1, 1, 32, 192], "dtype": "float32"}, {"name": "mnas_v4_a_035_1/feature_network/lead_cell_12/op_0/expand_0/Conv2D_bn_offset", "shape": [192], "dtype": "float32"}, {"name": "mnas_v4_a_035_1/feature_network/lead_cell_12/op_0/depthwise_0/depthwise_weights", "shape": [5, 5, 192, 1], "dtype": "float32"}, {"name": "mnas_v4_a_035_1/feature_network/lead_cell_12/op_0/depthwise_0/depthwise_bn_offset", "shape": [192], "dtype": "float32"}, {"name": "mnas_v4_a_035_1/feature_network/lead_cell_12/op_0/project_0/Conv2D_weights", "shape": [1, 1, 192, 64], "dtype": "float32"}, {"name": "mnas_v4_a_035_1/feature_network/lead_cell_16/op_0/project_0/Conv2D_weights", "shape": [1, 1, 384, 112], "dtype": "float32"}, {"name": "mnas_v4_a_035_1/feature_network/lead_cell_12/op_0/project_0/Conv2D_bn_offset", "shape": [64], "dtype": "float32"}, {"name": "mnas_v4_a_035_1/feature_network/cell_13/op_0/expand_0/Conv2D_weights", "shape": [1, 1, 64, 384], "dtype": "float32"}, {"name": "mnas_v4_a_035_1/feature_network/cell_13/op_0/expand_0/Conv2D_bn_offset", "shape": [384], "dtype": "float32"}, {"name": "mnas_v4_a_035_1/feature_network/lead_cell_16/op_0/project_0/Conv2D_bn_offset", "shape": [112], "dtype": "float32"}, {"name": "mnas_v4_a_035_1/feature_network/cell_13/op_0/depthwise_0/depthwise_weights", "shape": [5, 5, 384, 1], "dtype": "float32"}, {"name": "mnas_v4_a_035_1/feature_network/cell_13/op_0/depthwise_0/depthwise_bn_offset", "shape": [384], "dtype": "float32"}, {"name": "mnas_v4_a_035_1/feature_network/cell_13/op_0/project_0/Conv2D_weights", "shape": [1, 1, 384, 64], "dtype": "float32"}, {"name": "mnas_v4_a_035_1/feature_network/cell_13/op_0/project_0/Conv2D_bn_offset", "shape": [64], "dtype": "float32"}, {"name": "mnas_v4_a_035_1/feature_network/cell_14/op_0/expand_0/Conv2D_weights", "shape": [1, 1, 64, 384], "dtype": "float32"}, {"name": "mnas_v4_a_035_1/feature_network/lead_cell_17/op_0/conv2d_0/Conv2D_weights", "shape": [1, 1, 112, 1280], "dtype": "float32"}, {"name": "mnas_v4_a_035_1/feature_network/cell_14/op_0/expand_0/Conv2D_bn_offset", "shape": [384], "dtype": "float32"}]}]}